deploy/pre_train/h1_2/motion.pt (torch, 145745 bytes, 10 tensors)

hidden_state f4 [1, 1, 64]
0	0x00000000	0.0
1	0x00000000	0.0
2	0x00000000	0.0
3	0x00000000	0.0
4	0x00000000	0.0
5	0x00000000	0.0
6	0x00000000	0.0
7	0x00000000	0.0
8	0x00000000	0.0
9	0x00000000	0.0
10	0x00000000	0.0
11	0x00000000	0.0
12	0x00000000	0.0
13	0x00000000	0.0
14	0x00000000	0.0
15	0x00000000	0.0
16	0x00000000	0.0
17	0x00000000	0.0
18	0x00000000	0.0
19	0x00000000	0.0
20	0x00000000	0.0
21	0x00000000	0.0
22	0x00000000	0.0
23	0x00000000	0.0
24	0x00000000	0.0
25	0x00000000	0.0
26	0x00000000	0.0
27	0x00000000	0.0
28	0x00000000	0.0
29	0x00000000	0.0
30	0x00000000	0.0
31	0x00000000	0.0
32	0x00000000	0.0
33	0x00000000	0.0
34	0x00000000	0.0
35	0x00000000	0.0
36	0x00000000	0.0
37	0x00000000	0.0
38	0x00000000	0.0
39	0x00000000	0.0
40	0x00000000	0.0
41	0x00000000	0.0
42	0x00000000	0.0
43	0x00000000	0.0
44	0x00000000	0.0
45	0x00000000	0.0
46	0x00000000	0.0
47	0x00000000	0.0
48	0x00000000	0.0
49	0x00000000	0.0
50	0x00000000	0.0
51	0x00000000	0.0
52	0x00000000	0.0
53	0x00000000	0.0
54	0x00000000	0.0
55	0x00000000	0.0
56	0x00000000	0.0
57	0x00000000	0.0
58	0x00000000	0.0
59	0x00000000	0.0
60	0x00000000	0.0
61	0x00000000	0.0
62	0x00000000	0.0
63	0x00000000	0.0

cell_state f4 [1, 1, 64]
0	0x00000000	0.0
1	0x00000000	0.0
2	0x00000000	0.0
3	0x00000000	0.0
4	0x00000000	0.0
5	0x00000000	0.0
6	0x00000000	0.0
7	0x00000000	0.0
8	0x00000000	0.0
9	0x00000000	0.0
10	0x00000000	0.0
11	0x00000000	0.0
12	0x00000000	0.0
13	0x00000000	0.0
14	0x00000000	0.0
15	0x00000000	0.0
16	0x00000000	0.0
17	0x00000000	0.0
18	0x00000000	0.0
19	0x00000000	0.0
20	0x00000000	0.0
21	0x00000000	0.0
22	0x00000000	0.0
23	0x00000000	0.0
24	0x00000000	0.0
25	0x00000000	0.0
26	0x00000000	0.0
27	0x00000000	0.0
28	0x00000000	0.0
29	0x00000000	0.0
30	0x00000000	0.0
31	0x00000000	0.0
32	0x00000000	0.0
33	0x00000000	0.0
34	0x00000000	0.0
35	0x00000000	0.0
36	0x00000000	0.0
37	0x00000000	0.0
38	0x00000000	0.0
39	0x00000000	0.0
40	0x00000000	0.0
41	0x00000000	0.0
42	0x00000000	0.0
43	0x00000000	0.0
44	0x00000000	0.0
45	0x00000000	0.0
46	0x00000000	0.0
47	0x00000000	0.0
48	0x00000000	0.0
49	0x00000000	0.0
50	0x00000000	0.0
51	0x00000000	0.0
52	0x00000000	0.0
53	0x00000000	0.0
54	0x00000000	0.0
55	0x00000000	0.0
56	0x00000000	0.0
57	0x00000000	0.0
58	0x00000000	0.0
59	0x00000000	0.0
60	0x00000000	0.0
61	0x00000000	0.0
62	0x00000000	0.0
63	0x00000000	0.0

weight f4 [32, 64]
0	0xbdbb684b	-0.09150752
1	0xbe0e8733	-0.13918762
2	0xbd9322c1	-0.07184363
3	0x3ebf3f00	0.37352753
4	0xbe42ec35	-0.19035418
5	0x3e9614d3	0.29312763
6	0xbe148bb4	-0.14506418
7	0x3e644f86	0.22295961
8	0x3d860c7c	0.0654535
9	0xbe59d41f	-0.21272324
10	0xbc85a248	-0.016312733
11	0x3e3ab5ed	0.18233462
12	0x3e1f16db	0.15536062
13	0x3e14093b	0.14456646
14	0x3da181b1	0.07886065
15	0x3e9e8788	0.30962777
16	0x3e651dde	0.22374675
17	0xbe23e537	-0.16005407
18	0x3e79fe4c	0.24413413
19	0xbd6d1043	-0.057876837
20	0x3e79da3c	0.24399656
21	0x3e962291	0.29323247
22	0x3e98fcb0	0.29880285
23	0xbdbc2914	-0.091875225
24	0x3e07a8f8	0.1324805
25	0x3c8bbdef	0.01705834
26	0xbd63cb17	-0.055613603
27	0x3ed444a1	0.4145861
28	0x3c6bcb6c	0.014391761
29	0x3e846acf	0.25862738
30	0xbe8901a7	-0.26759073
31	0xbe9454d3	-0.28970966
32	0x3e28de18	0.16490972
33	0xbd6c8a09	-0.057748828
34	0xbeb5b0f7	-0.35486576
35	0x3e034724	0.12820107
36	0xbf0bdb3d	-0.54631406
37	0xbd3e9a10	-0.046533644
38	0xbdabae16	-0.08382814
39	0x3ea3df83	0.32006463
40	0xbeb526b4	-0.3538109
41	0xbd87fb0f	-0.066396825
42	0xbf116c6d	-0.5680607
43	0xbea4a07b	-0.32153687
44	0xbe8c6c93	-0.27426586
45	0x3e152296	0.14563975
46	0xbe2a647e	-0.16639897
47	0xbeed6e2f	-0.46373126
48	0xbe163607	-0.14669047
49	0xbedf2057	-0.4357936
50	0xbde70720	-0.11280656
51	0x3eace323	0.33767042
52	0x3eaf1c93	0.34201488
53	0xbdf4d9e8	-0.11955625
54	0x3e3de375	0.18543799
55	0x3cc58cde	0.024115022
56	0xbd331ff1	-0.043731634
57	0x3e907b50	0.2821908
58	0x3e8eca10	0.27888536
59	0xbe45f8fa	-0.19333258
60	0xbecb17a8	-0.39666486
61	0x3eb2d8e6	0.34931105
62	0x3ddf30a0	0.10897946
63	0x3e8a6909	0.2703326
64	0xbe3c3c7b	-0.18382446
65	0x3da75889	0.081711836
66	0xbe365571	-0.17806031
67	0xbe697fa7	-0.22802602
68	0xbd1837e9	-0.037162695
69	0xbe9ff4fe	-0.31241602
70	0x3dac60a3	0.084168695
71	0xbed6c1c7	-0.41944715
72	0xbd8b9383	-0.06815245
73	0x3eb792c3	0.35854158
74	0xbe95b5ff	-0.29240415
75	0x3f0a8665	0.5411132
76	0xbe5661f0	-0.20935798
77	0xbd91ca48	-0.0711866
78	0x3e96d8ac	0.29462183
79	0x3d376774	0.044776395
80	0x3f15d752	0.5853168
81	0x3e7a8cc4	0.2446776
82	0x3de7fbbf	0.11327314
83	0x3e9117c9	0.2833846
84	0xbeb43189	-0.35194042
85	0x3d42e4b2	0.047581382
86	0x3dd2b6f2	0.102888
87	0xbe11d797	-0.14242397
88	0x3eb223a4	0.34792817
89	0xbe41e8f7	-0.18936525
90	0xbdc62730	-0.09675443
91	0xbe660493	-0.22462682
92	0xbe38ac86	-0.18034562
93	0xbd9c6814	-0.07637039
94	0xbd369dcc	-0.04458408
95	0x3e3b7c2a	0.18309084
96	0xbcf1bb10	-0.029508144
97	0xbe22b3f3	-0.15888958
98	0xbed3dec0	-0.41380882
99	0xbe4dae58	-0.20086038
100	0xbe5766a6	-0.21035251
101	0xbd14ec99	-0.03635845
102	0x3e58c6e2	0.21169618
103	0xbe625cbb	-0.22105686
104	0xbe08ed69	-0.13371815
105	0xbe38131a	-0.17976037
106	0xbe371028	-0.17877257
107	0xbe62e21b	-0.22156565
108	0x3e2a7bac	0.1664874
109	0x3da85110	0.082185864
110	0xbe43ee40	-0.19133854
111	0x3f38fceb	0.7226092
112	0x3d6a7542	0.057240732
113	0xbd9e18e8	-0.07719594
114	0x3e92e4a1	0.28690055
115	0x3e1a9efe	0.15099713
116	0x3e439f4a	0.19103733
117	0xbf0e7c9a	-0.55658877
118	0xbe5df6a0	-0.21676111
119	0x3e0fc377	0.14039408
120	0xbe88a5d0	-0.26689005
121	0x3ebde129	0.37085846
122	0x3d8bab5a	0.06819792
123	0xbc8d8ed1	-0.017280014
124	0xbe2bbaee	-0.16770527
125	0x3ece7b0a	0.40328246
126	0x3c71a8b0	0.014749691
127	0xbcea0b7e	-0.028569933
128	0x3d5a10b3	0.053238582
129	0x3e6795e3	0.22615771
130	0x3c2d65a1	0.010583312
131	0xbd0a9f08	-0.03384307
132	0xbf05d280	-0.5227432
133	0xbdb27f90	-0.08715737
134	0x3e58ea4c	0.21183127
135	0x3ed30d20	0.4122095
136	0xbdfd9c72	-0.12383355
137	0x3e8e832a	0.27834445
138	0xbe5c49a7	-0.21512471
139	0x3eb73a26	0.3578655
140	0xbd2f2147	-0.042756345
141	0x3db59d64	0.088679105
142	0xbef6b3e2	-0.48184115
143	0x3e26e6b9	0.16298951
144	0x3ea54c63	0.3228484
145	0xbd616a07	-0.055032756
146	0xbe139565	-0.14412458
147	0x3e6bb646	0.2301875
148	0xbf494161	-0.78615385
149	0xbf0f421a	-0.5596024
150	0x3e9122dd	0.2834691
151	0xbecb84d1	-0.39749768
152	0x3f2b93fd	0.6702269
153	0x3ef4cfac	0.4781469
154	0xbf02596a	-0.50917685
155	0x3e85b1c6	0.26112193
156	0x3e547636	0.20748219
157	0xbe08e9d6	-0.13370451
158	0x3c9830ca	0.018577952
159	0xbf080c39	-0.5314365
160	0x3e2c31bf	0.16815852
161	0x3cbe4f78	0.023231253
162	0xbe6a384d	-0.2287304
163	0xbd22cd44	-0.039746538
164	0x3dc6609d	0.09686396
165	0x3d1214c0	0.03566432
166	0xbe628561	-0.22121193
167	0x3ea854ff	0.32877347
168	0x3d108145	0.03527953
169	0x3e203fca	0.15649334
170	0xbf3fde48	-0.7494855
171	0xbd722a5f	-0.05912244
172	0xbe369631	-0.17830731
173	0xbd3b3564	-0.045705214
174	0x3d0a181e	0.033714406
175	0x3e1ad625	0.15120752
176	0x3c017e7e	0.007903693
177	0xbe28c9d1	-0.16483237
178	0x3c4f23b3	0.012642789
179	0xbf081079	-0.53150135
180	0xbd05d334	-0.032672122
181	0xbdee757f	-0.11643504
182	0xbf2e6ea9	-0.68137604
183	0x3ed3656c	0.41288316
184	0x3e087844	0.13327128
185	0x3e3de4ed	0.1854436
186	0xbee672eb	-0.4500955
187	0x3ec32e11	0.38121083
188	0xbe22dd80	-0.15904808
189	0x3e19d178	0.15021312
190	0xbe8c5e11	-0.27415517
191	0xbcd9841d	-0.026552254
192	0x3ec7d28c	0.39027822
193	0xbc671f2b	-0.014106552
194	0x3e991b6a	0.29903728
195	0xbbe333a8	-0.006933648
196	0xbe508589	-0.2036344
197	0xbdbf5045	-0.09341482
198	0x3e3e0050	0.18554807
199	0xbd7aea2c	-0.06125848
200	0xbdbd3ef7	-0.09240525
201	0x3e2ff4d7	0.17183243
202	0xbd7c8b59	-0.06165633
203	0xbcfdea50	-0.030995518
204	0x3eaa52e8	0.33266377
205	0xbede81a9	-0.43458298
206	0x3c29cd3c	0.010363873
207	0xbe9d4657	-0.30717728
208	0x3e5e8688	0.21731007
209	0xbe831a7e	-0.2560615
210	0xbe20c98b	-0.15701883
211	0xbe1e01cc	-0.15430373
212	0xbda31866	-0.07963638
213	0x3e42f47c	0.19038576
214	0x3d17039e	0.036868684
215	0x3e125f50	0.14294171
216	0xbea4d9a8	-0.3219731
217	0x3f84822d	1.0352226
218	0xbdaf3ad0	-0.085561395
219	0xbd2cf021	-0.042221192
220	0xbee2b611	-0.4427953
221	0x3e7faefc	0.24969095
222	0xbf1d887b	-0.6153638
223	0x3c13518c	0.00899161
224	0xbcc15d47	-0.023604048
225	0xbee4e912	-0.4470907
226	0xbeb07446	-0.3446371
227	0xbdd33965	-0.103136815
228	0xbf0b58f0	-0.5443258
229	0xbeb05771	-0.34441712
230	0xbeed96c8	-0.464041
231	0xbeaaad8c	-0.3333553
232	0xbf3eee31	-0.745822
233	0x3ea979e1	0.331008
234	0x3f090de7	0.5353684
235	0xbf2c5f1d	-0.6733263
236	0x3de5f6d8	0.11228722
237	0x3e735439	0.23762597
238	0xbe932d2f	-0.2874541
239	0xbf08d6b6	-0.5345262
240	0x3ed124b7	0.40848324
241	0xbe73a94a	-0.23795047
242	0x3f67c118	0.9052901
243	0x3d575170	0.0525679
244	0x3cfa4170	0.030548781
245	0xbd8614ba	-0.06546922
246	0xbe15cdeb	-0.14629333
247	0xbe9fb550	-0.31193018
248	0x3f123eb3	0.5712692
249	0xbec1ead3	-0.3787447
250	0x3e87bae7	0.26509783
251	0xbe1e6947	-0.15469848
252	0xbdd0b79c	-0.10191271
253	0xbd0fd4bd	-0.035114992
254	0xbe21225e	-0.15735766
255	0x3ec6f787	0.38860723

bias f4 [32]
0	0x3dbfa422	0.09357478
1	0xbe35554b	-0.17708318
2	0xbe37cb50	-0.17948651
3	0x3d6a919f	0.05726778
4	0x3d8294e8	0.06376058
5	0x3d17bfe2	0.037048228
6	0x3d444288	0.04791501
7	0xbcbfd348	-0.023416176
8	0x3d5b8e08	0.05360225
9	0xbe1a4a02	-0.15067294
10	0xbcd0d275	-0.025490979
11	0x3e254671	0.16140153
12	0xbdb1f715	-0.08689705
13	0xbe542291	-0.20716311
14	0x3d1510eb	0.036393087
15	0x3e3e442d	0.18580694
16	0xbe281a2e	-0.16416237
17	0xbdfcd778	-0.12345785
18	0xbd76c5b0	-0.060247123
19	0x3cea711e	0.028618392
20	0x3d989503	0.07450297
21	0x3c92db16	0.017926734
22	0x3e5bc145	0.21460445
23	0x3b2b9672	0.0026182202
24	0xbdf10a57	-0.1176955
25	0x3cdb46ec	0.026767217
26	0xbe17aadc	-0.14811271
27	0x3e455bd9	0.19273318
28	0x3da55371	0.08072556
29	0x3d9b5a8e	0.07585631
30	0xbda9188e	-0.082566366
31	0xbd3e3662	-0.046438582

weight f4 [12, 32]
0	0x3e07e00b	0.1326906
1	0x3d8f8a08	0.07008749
2	0x3dccc92b	0.09999307
3	0xbcec0e18	-0.028815314
4	0x3cd9dbc3	0.026594048
5	0x3dd311b9	0.10306115
6	0xbe49b502	-0.19697955
7	0x3a37259f	0.0006986502
8	0xbe069059	-0.13141002
9	0x3d7c8c74	0.061657384
10	0x3e5d67f6	0.21621689
11	0xbdc558c1	-0.09636069
12	0xbc1fa691	-0.009744302
13	0xbd9af0a4	-0.0756543
14	0xbda43d87	-0.08019548
15	0xbdaa7d9e	-0.08324741
16	0xbda891b5	-0.082309164
17	0xbe7eac1c	-0.24870342
18	0x3dc7b1a4	0.09750679
19	0xbe412f6a	-0.18865743
20	0xbe1118ca	-0.14169613
21	0x3dbe8b21	0.093038805
22	0xbc6accad	-0.014331025
23	0x3e04527b	0.12922089
24	0x3dca8fc7	0.098907046
25	0x3e412357	0.18861137
26	0x3c577119	0.013149523
27	0x3d9751f6	0.0738868
28	0x3d168e50	0.036756814
29	0xbe51b064	-0.20477444
30	0xbd93d8a2	-0.07219054
31	0x3e727770	0.23678374
32	0x3edb252d	0.428018
33	0x3ea54d2c	0.3228544
34	0xbd03663a	-0.032079913
35	0xbdd1fbdc	-0.102531165
36	0x3ef3df61	0.47631362
37	0x3d876536	0.06611101
38	0xbee0de37	-0.43919536
39	0x3e4a0874	0.19729787
40	0xbd444e98	-0.047926515
41	0xbde3056c	-0.110850185
42	0x3e61c71c	0.2204861
43	0x3e51595e	0.20444247
44	0xbec26994	-0.37971175
45	0xbda3c1ee	-0.079959735
46	0xbca01c21	-0.019544663
47	0x3e348271	0.17627884
48	0x3dfd169d	0.12357829
49	0xbda37c4d	-0.07982693
50	0xbdca37f7	-0.09873956
51	0xbeb2c342	-0.34914595
52	0x3e03e3e4	0.12879902
53	0x3d81af24	0.063322335
54	0x3e95adc3	0.29234132
55	0xbe84fe21	-0.25975135
56	0xbdb6bf10	-0.08923161
57	0x3e00125f	0.12507008
58	0x3e22dbf0	0.15904212
59	0xbeab9f80	-0.33520126
60	0xbe98fa9b	-0.29878697
61	0x3ecb909b	0.39758763
62	0x3d65fd06	0.056149505
63	0xbebd36df	-0.36955926
64	0x3cf4636c	0.029832564
65	0xbe71363f	-0.2355585
66	0xbea4fd4c	-0.322245
67	0x3df2497f	0.118304245
68	0x3f233a89	0.6376119
69	0xbd9e9878	-0.07743925
70	0x3dd6a740	0.10481119
71	0x3e305b99	0.17222442
72	0x3c35efa2	0.011104496
73	0xbc999d49	-0.018751757
74	0xb9979f05	-0.00028919443
75	0x3e6438a3	0.2228723
76	0xbe923f7c	-0.2856406
77	0xbf4c4327	-0.79789966
78	0x3e0fdcd6	0.14049086
79	0xbb4258da	-0.002965501
80	0xbeb2f8fc	-0.34955585
81	0xbe0e4ec5	-0.13897236
82	0x3d6e0625	0.05811133
83	0x3e3f566e	0.18685314
84	0x3efa3a86	0.48872775
85	0x3d4168d8	0.047219127
86	0x3ea22ead	0.31676236
87	0xbe8d5cab	-0.27609763
88	0xbec02b63	-0.375331
89	0x3e117cea	0.14207807
90	0xbd6c5074	-0.057693914
91	0x3f434b04	0.7628634
92	0x3e5951f0	0.21222663
93	0xbe1ef8c1	-0.1552458
94	0xbdfa3889	-0.122178145
95	0xbce377d8	-0.027767107
96	0xbddabba2	-0.10680319
97	0xbce3b46c	-0.027795993
98	0x3dc4ae8e	0.09603606
99	0xbdb818ba	-0.08989091
100	0x3e690d6d	0.22759028
101	0x3d392471	0.04520077
102	0xbe8aa806	-0.27081317
103	0x3e1b86a6	0.15188083
104	0x3ca67d82	0.020323519
105	0xbec3f2f4	-0.38271296
106	0x3e8d1ac9	0.27559498
107	0xbd9cf21e	-0.07663368
108	0x3e832e08	0.25621057
109	0x3e600ee7	0.21880685
110	0x3e4771e8	0.19477046
111	0x3eaf7fdb	0.34277233
112	0x3e8a721d	0.27040187
113	0xbe870a43	-0.26375017
114	0x3e8d635b	0.27614865
115	0x3eb2e5d6	0.34940976
116	0xbc8ef169	-0.017449098
117	0xbdf654e4	-0.1202791
118	0xbe915fd2	-0.28393418
119	0x3dd5d242	0.10440494
120	0x3d84c844	0.0648351
121	0xbca50dfa	-0.020148266
122	0xbc36b6d4	-0.011151988
123	0x3d64a1f7	0.055818524
124	0xbc94a9a3	-0.018147295
125	0xbc4aca04	-0.012377266
126	0xbd2e4ac9	-0.04255179
127	0xbe1aad81	-0.15105249
128	0x3df979ef	0.1218146
129	0xbe946d6b	-0.2898973
130	0x3d5071ec	0.050889894
131	0x3f577404	0.841614
132	0xbed59273	-0.41713294
133	0xbcb69ddd	-0.022292072
134	0xbe05bcbe	-0.1306028
135	0x3dc4c57e	0.09607981
136	0xbe605adf	-0.21909665
137	0xbf93b631	-1.1539975
138	0x3edc809d	0.43066874
139	0xbe4c9054	-0.19976932
140	0xbd1845e8	-0.037176043
141	0x3e42576d	0.18978663
142	0xbd800fe1	-0.06253029
143	0x3ef818a5	0.48456302
144	0x3eb85f78	0.36010337
145	0x3eab0940	0.33405495
146	0xbf1fe558	-0.62459326
147	0xbe495b4b	-0.19663732
148	0xbd48ebcd	-0.049053002
149	0x3ea2a972	0.31769902
150	0xbe5a0d42	-0.2129412
151	0x3ee2bf31	0.44286492
152	0x3c877e55	0.016539732
153	0x3f9e0c7e	1.2347562
154	0xbf401aa1	-0.7504063
155	0x3ef06485	0.4695169
156	0x3e961430	0.29312277
157	0x3f8d2468	1.1026735
158	0x3e9cc07e	0.3061561
159	0xbc42fb18	-0.011900686
160	0x3f142ce9	0.5788103
161	0xbe07ef1b	-0.13274805
162	0xbf19610e	-0.5991372
163	0x3ef5206c	0.47876298
164	0x3ecf837a	0.40529996
165	0xbede6ce8	-0.43442464
166	0x3ef862e0	0.48512936
167	0x3eb3b3ea	0.350982
168	0xbe229f95	-0.15881188
169	0xbefa0115	-0.4882895
170	0x3e48ad44	0.19597346
171	0xbe9d6644	-0.30742085
172	0xbe8be55c	-0.27323425
173	0x3c864a9e	0.016393002
174	0xbf93bd93	-1.1542228
175	0xbb28a86d	-0.0025735155
176	0xbf12f4b4	-0.5740464
177	0x3d5ce836	0.05393239
178	0x3e3049bc	0.17215627
179	0x3de15e8e	0.11004363
180	0xbecedfd0	-0.4040513
181	0xbe4cd9cf	-0.20004962
182	0x3e2b1bcb	0.16709821
183	0xbe43215d	-0.19055696
184	0x3eb743c5	0.35793892
185	0xbeb1da81	-0.34737018
186	0xbbff955d	-0.007799788
187	0x3e533988	0.20627415
188	0xbe667844	-0.22506815
189	0xbe77295d	-0.24136873
190	0xbe3d2a5a	-0.18473187
191	0xbe3841bc	-0.17993826
192	0xbdeb4520	-0.11487794
193	0x3dd7c14e	0.10534917
194	0xbd88de56	-0.06683032
195	0x3cefee71	0.029288502
196	0xbd46182f	-0.048362907
197	0xbcc11fb2	-0.023574684
198	0x3e322eb3	0.17400627
199	0xbc5afea6	-0.013366377
200	0x3e527ba5	0.20554979
201	0x3d61368f	0.05498367
202	0xbe75948d	-0.23982449
203	0xbe2452f9	-0.16047277
204	0xbdea7f46	-0.11450057
205	0xbc0e4ca5	-0.008685266
206	0x3dcd745f	0.10031962
207	0x3ead9f4c	0.33910596
208	0x3cdc3917	0.026882691
209	0xbdf0333a	-0.11728521
210	0x3e29b695	0.16573556
211	0xbe365df4	-0.17809278
212	0x3de7378e	0.11289893
213	0xbc9bed37	-0.019034011
214	0x3dc04e10	0.09389889
215	0x3d879b7c	0.06621453
216	0x3cdbe419	0.026842164
217	0xbe255486	-0.16145524
218	0xbde03d00	-0.10949135
219	0x3d805df7	0.06267922
220	0x3ce4bb80	0.027921438
221	0x3d267795	0.040641386
222	0xbd9738ad	-0.07383857
223	0xbdbe403f	-0.09289598
224	0xbcaf3833	-0.021389103
225	0xbe82e14c	-0.25562513
226	0x3e44bb82	0.19212154
227	0xbe8bb826	-0.27288932
228	0xbd4d8751	-0.050177876
229	0x3d443ba7	0.04790845
230	0xbe318759	-0.17336787
231	0xbee66fb5	-0.450071
232	0x3ea23aac	0.31685388
233	0x3d9f0de6	0.07766323
234	0xbde62519	-0.112375446
235	0xbea6b53f	-0.32560155
236	0x3dffe5b5	0.12494985
237	0x3dbd826f	0.09253394
238	0xbe2dbb48	-0.16965973
239	0x3d7f5077	0.062332597
240	0xbf090699	-0.5352569
241	0x3dcb5aae	0.09929405
242	0xbd8fd970	-0.07023895
243	0xbd1bc2ad	-0.038027454
244	0xbe4b03fd	-0.1982574
245	0xbeceeddd	-0.4041585
246	0x3ea1adbe	0.31577867
247	0xbea31c2c	-0.3185743
248	0x3dbd2928	0.092363656
249	0x3e32bbe9	0.17454495
250	0xbe9a94e1	-0.3019171
251	0x3e8e61eb	0.2780908
252	0xbd667050	-0.056259453
253	0xbe636887	-0.22207843
254	0x3e795c8f	0.24351715
255	0xbe9f7a47	-0.31147978

bias f4 [12]
0	0x3cc0d840	0.023540616
1	0xbdc1512c	-0.094393104
2	0x3eb204e0	0.34769344
3	0xbcbcd524	-0.023050852
4	0x3e893ff4	0.26806605
5	0xbd9b4472	-0.07581414
6	0xbd83d141	-0.064363964
7	0xbd17e349	-0.03708199
8	0xbe53fd2c	-0.20702046
9	0xbd643aad	-0.05572002
10	0x3da35f1a	0.079771236
11	0x3e6af028	0.22943175

weight_ih_l0 f4 [256, 47]
0	0xbe8da6d1	-0.27666333
1	0xbdd1b441	-0.10239459
2	0x3f3d425f	0.739294
3	0x3d923399	0.07138748
4	0xbe8a8d91	-0.27061132
5	0x3e1c8b98	0.15287626
6	0x3f27e771	0.65587527
7	0x3dfc3d2b	0.12316354
8	0x3f982355	1.1885782
9	0xbe97ab32	-0.296228
10	0x3ec2f96f	0.38080928
11	0xbc9cfa74	-0.019162394
12	0x3f51992d	0.8187435
13	0xbead3f09	-0.33837155
14	0xbeaab853	-0.33343753
15	0x3f35f6d5	0.7107976
16	0xbfa2fdde	-1.2733724
17	0xbf4a002b	-0.78906506
18	0xbf007685	-0.50180846
19	0x3e50dcf0	0.20396781
20	0xbe856540	-0.2605381
21	0xbf08caa4	-0.53434205
22	0x3e2f96f2	0.17147425
23	0xba57b2dc	-0.0008228251
24	0x3fa3ddaf	1.2802027
25	0xbf8d1899	-1.1023132
26	0xbe7564ac	-0.23964185
27	0x3db21429	0.086952515
28	0xbf87d420	-1.061161
29	0x3ec33b86	0.3813135
30	0xbb1321ee	-0.0022450644
31	0x3d824ea6	0.06362657
32	0xbe4ab41f	-0.19795273
33	0x3d13c4ef	0.036076482
34	0x3e460460	0.19337606
35	0x3ebca015	0.36840883
36	0x3e88530a	0.26625854
37	0xbe0a7151	-0.1351979
38	0x3c8d3fa9	0.01724227
39	0x3d93dde5	0.072200574
40	0xbe104a99	-0.14090957
41	0xbdaf91b9	-0.08572716
42	0xbdddb2c8	-0.108251154
43	0x3d370f3a	0.044692256
44	0x3e1b729e	0.15180442
45	0x3e06e5cb	0.13173597
46	0xbf207506	-0.62678564
47	0xbf00b0c5	-0.5026973
48	0xbfe47ba9	-1.7850238
49	0x3d58645f	0.052830096
50	0xbfb6d76f	-1.4284495
51	0x3f92d427	1.1470994
52	0x3e5dd38a	0.21662727
53	0x3e671326	0.22565898
54	0xbe2a7503	-0.16646199
55	0xbe5200b6	-0.20508084
56	0x3fac2fdc	1.3452106
57	0xbc09e3d2	-0.008416133
58	0xbfee8101	-1.8633119
59	0x3f01e00d	0.507325
60	0x3edd8952	0.4326883
61	0x3fc2ca38	1.5217962
62	0x3e66b49d	0.22529836
63	0xbf97d1b5	-1.1860873
64	0xbf069644	-0.5257304
65	0xbf499af4	-0.78752065
66	0x3f953864	1.1657834
67	0xbf2ee4e5	-0.68318015
68	0x3f1524ca	0.5825926
69	0xbf9e4ce2	-1.2367213
70	0xbf13264f	-0.5748033
71	0x3ec98d0c	0.39365423
72	0x3ebfe488	0.37479043
73	0x3ed21523	0.4103175
74	0x3f277418	0.6541152
75	0xbf65ffb6	-0.8984331
76	0x3f8779bb	1.0584024
77	0xbf2982dc	-0.662153
78	0x3d12184e	0.03566771
79	0xbf536cc0	-0.82587814
80	0x3cb4ae76	0.022055846
81	0xbe0edd9f	-0.13951729
82	0x3e171c69	0.14756931
83	0x3e785d23	0.24254279
84	0x3e43a6d4	0.19106609
85	0x3e25e323	0.16199927
86	0x3ea8b42d	0.32949963
87	0xbc06a116	-0.008217117
88	0x3c10d2bf	0.008839308
89	0x3dbc59f7	0.09196847
90	0xbe0bd7fd	-0.13656612
91	0x3e0b651f	0.13612793
92	0x3eaa8d2c	0.3331083
93	0x3e640f5a	0.22271481
94	0xbfd565dc	-1.667171
95	0xbb161d9a	-0.0022905827
96	0xbf81c6e8	-1.0138826
97	0xbece1910	-0.40253496
98	0x3fdfaafd	1.7474056
99	0x3d92f8d6	0.07176368
100	0x3e1f95ff	0.15584563
101	0xbe6a1420	-0.2285924
102	0x3d5a50e6	0.053299807
103	0x3ed1e59a	0.40995485
104	0xbf01b586	-0.5066761
105	0xbf1a7aeb	-0.6034381
106	0x3f2bb794	0.67076993
107	0x3d379bec	0.044826433
108	0xbdd40a86	-0.1035357
109	0xbecd1604	-0.4005586
110	0x3cc9003c	0.024536245
111	0xbeaa6931	-0.3328338
112	0x3f3a02f2	0.72660744
113	0xbe2d5b46	-0.1692935
114	0x3ebc8dcc	0.36826932
115	0xbf346498	-0.70465994
116	0xbbc900aa	-0.0061341124
117	0x3f635acf	0.8881044
118	0xbf1b62e7	-0.6069779
119	0x3eacbb50	0.33736658
120	0xbd3272d3	-0.043566536
121	0x3f23bfcf	0.6396455
122	0xbed5c4d1	-0.41751722
123	0x3e5cc7b9	0.21560563
124	0x3ef5930c	0.4796375
125	0xbf2cc5cc	-0.67489314
126	0xbe8d18c5	-0.2755796
127	0xbd18b42c	-0.0372812
128	0xbe0d121c	-0.1377644
129	0xbdf31070	-0.118683696
130	0xbef75a9f	-0.48311326
131	0xbb163c7c	-0.0022924235
132	0x3d74da06	0.059778236
133	0x3e82df2d	0.25560895
134	0x3d4b661c	0.049657926
135	0x3b86ea36	0.0041172756
136	0xbe0af81d	-0.1357121
137	0x3dc4c86f	0.09608542
138	0x3d83854e	0.0642191
139	0x3eaee510	0.34159136
140	0x3dbcbe95	0.09216038
141	0xbf0e7138	-0.5564151
142	0x3e38e760	0.18057013
143	0xbe33e44e	-0.1756756
144	0x3f09b67f	0.5379409
145	0xbf3316b7	-0.69956535
146	0x3f256888	0.6461263
147	0xbf217fb0	-0.6308546
148	0x3dd53b0b	0.10411652
149	0xbdf6caf1	-0.12050427
150	0xbe7f3617	-0.24922977
151	0x3f0cab9f	0.54949373
152	0xc02face3	-2.7449272
153	0xbeca5454	-0.39517462
154	0x3e7a189d	0.24423452
155	0x3ee67b92	0.45016152
156	0x3e91bb55	0.28463235
157	0x3f8760d5	1.0576426
158	0x3fd20dab	1.6410421
159	0xbe9ee329	-0.31032684
160	0xbdf6319e	-0.120211825
161	0xbcdf8ff8	-0.02729033
162	0x3daa3f25	0.08312825
163	0x3bd96d0c	0.006635314
164	0x3e085b93	0.13316183
165	0xbe0709ad	-0.13187285
166	0x3ef7acae	0.48373932
167	0xbd9b14d4	-0.07572332
168	0xbf84c81e	-1.0373571
169	0x3da45c51	0.080254205
170	0x3f038795	0.51378757
171	0x3edf1edc	0.4357823
172	0xbea85ccb	-0.32883295
173	0xbebdeca0	-0.37094593
174	0x3f29405b	0.66113824
175	0xbe9f763f	-0.31144902
176	0xbe1652c6	-0.14680013
177	0x3f035a54	0.51309705
178	0x3ac9b141	0.0015387909
179	0xbc979cd1	-0.018507393
180	0xbf06299e	-0.5240725
181	0x3e3cdc59	0.18443431
182	0xbe57781a	-0.21041909
183	0x3d912987	0.07087999
184	0xbc3a3fa3	-0.011367711
185	0x3e2c8a74	0.1684969
186	0x3e2edf20	0.17077303
187	0x3f00b9de	0.5028361
188	0xbe1e63ee	-0.15467808
189	0x3df277ed	0.1183928
190	0xbfa92a17	-1.321597
191	0x3f4ded51	0.8044024
192	0x3e8765ae	0.26444763
193	0x3da37736	0.07981722
194	0x3eb0e34a	0.34548408
195	0xbe98c5f5	-0.2983853
196	0xbf730f6d	-0.9494541
197	0xbce7a6c5	-0.028277764
198	0x3ed1ca79	0.40974787
199	0xbf28211e	-0.6567553
200	0x3d319212	0.043352194
201	0x3f68a1e1	0.9087201
202	0x3f469d32	0.7758361
203	0x3f43e12b	0.76515454
204	0x3d2982fb	0.04138468
205	0x3f5374ab	0.82599896
206	0xbe27b8a7	-0.16379033
207	0xbe1e7c06	-0.15476999
208	0xbf5110ce	-0.81666267
209	0x3f0f4e51	0.55978876
210	0xbdb4581a	-0.088058665
211	0x3a750173	0.0009346224
212	0x3dbfedc3	0.09371521
213	0xbc4c5fa2	-0.0124739725
214	0x3f179aff	0.5922088
215	0xbe96d140	-0.2945652
216	0xbf0a4964	-0.54018235
217	0x3c2cf37b	0.010556097
218	0x3ebbfff2	0.36718708
219	0xbf134298	-0.5752349
220	0x3dec1650	0.11527693
221	0x3ed8cc24	0.42343247
222	0xbd062155	-0.03274663
223	0xbeba54c7	-0.36392805
224	0xbeccad9e	-0.3997621
225	0x3b870a96	0.004121135
226	0xbe39f27f	-0.18158911
227	0x3ed3056e	0.4121508
228	0xbe256c86	-0.1615468
229	0xbf044f9d	-0.5168398
230	0x3f13d2dc	0.5774362
231	0xbd0c3baa	-0.034236588
232	0x3ebc0f6e	0.36730522
233	0x3f3ddae1	0.7416211
234	0x3f07b188	0.53005266
235	0x3ee7df2a	0.45287448
236	0x3c723a16	0.014784357
237	0x3f7a0385	0.9766162
238	0xbdefa925	-0.11702184
239	0x3fa88c9c	1.316791
240	0x3d682ba5	0.056682248
241	0x3cdf1f08	0.027236477
242	0x3f266483	0.6499712
243	0x3fa63d86	1.2987525
244	0xbf3acb82	-0.7296678
245	0xbede3709	-0.43401363
246	0xbf13874c	-0.5762832
247	0x3ec57069	0.38562325
248	0x3e4518e6	0.19247779
249	0x3ed3a766	0.41338652
250	0xbf998015	-1.1992213
251	0x3e5bf1f4	0.21479017
252	0x3f961b1f	1.1727027
253	0x3e51bed4	0.20482951
254	0xbdb2ce2b	-0.0873073
255	0x3e088812	0.13333157

weight_hh_l0 f4 [256, 64]
0	0x3e877326	0.2645504
1	0x3e621bb8	0.22080886
2	0x3f04ad61	0.51827055
3	0x3e90b638	0.28264022
4	0x3dffc1cc	0.12488136
5	0x3eaf2a9e	0.34212202
6	0x3ec906ba	0.39262944
7	0x3cd0249f	0.025408087
8	0xbfa011a6	-1.2505386
9	0xbf229f33	-0.6352417
10	0x3e4976b1	0.19674183
11	0xbf46d50a	-0.7766882
12	0xbeeb02c6	-0.45900553
13	0xbeada7fe	-0.3391723
14	0xbed50a75	-0.4160954
15	0x3ed19443	0.40933427
16	0x3ef45cd4	0.47727072
17	0x3e23c275	0.15992148
18	0x3e027178	0.12738597
19	0xbedfb37b	-0.4369162
20	0x3f6022c1	0.8755303
21	0x3e358478	0.17726314
22	0x3f965bfa	1.1746819
23	0x3d161baa	0.036647476
24	0x3d2fead6	0.042948566
25	0x3ee30896	0.44342488
26	0xbd59720f	-0.05308729
27	0x3e6494cf	0.22322391
28	0x3f04a091	0.51807505
29	0x3e92e270	0.28688383
30	0x3f510f6d	0.8166416
31	0xbe9400ec	-0.28906953
32	0xbedec160	-0.43506908
33	0x3e1e3450	0.15449643
34	0x3ee35eeb	0.44408354
35	0x3f376982	0.7164537
36	0x3e25eb95	0.16203149
37	0xbeb38cbe	-0.35068315
38	0x3f6ce804	0.9254153
39	0xbe968454	-0.29397833
40	0x3e62ad05	0.22136314
41	0x3e8c55ec	0.27409303
42	0xbe6f12ef	-0.23347066
43	0x3e5e3457	0.21699654
44	0xbc4fc9b1	-0.012682364
45	0xbf106f0f	-0.5641946
46	0x3ec40958	0.3828838
47	0xbeaeef4f	-0.34166953
48	0xbebf5566	-0.3736984
49	0x3f3623da	0.71148455
50	0x3e530fe0	0.20611525
51	0x3f5f06af	0.87119573
52	0x3e749e3e	0.2388849
53	0xbe75859b	-0.23976748
54	0x3e6e4fb3	0.2327259
55	0x3f3a5a84	0.72794366
56	0x3e0eaeb3	0.1393383
57	0xbd640370	-0.05566734
58	0xbdf2c784	-0.11854461
59	0x3d4c12c8	0.0498226
60	0x3ce5581a	0.027996112
61	0xbd0087d6	-0.031379543
62	0xbe45a5a1	-0.19301464
63	0x3cad7288	0.021172777
64	0x3d1d755d	0.038442004
65	0x3e1aace0	0.15105009
66	0xbf808126	-1.0039413
67	0x3db2c204	0.08728412
68	0xbf0adc99	-0.54242855
69	0x3daf5059	0.08560247
70	0x3d9552f4	0.07291213
71	0xbe99cc2f	-0.30038592
72	0xbf08c602	-0.53427136
73	0xba69a565	-0.00089128903
74	0xbe6cb94c	-0.2311756
75	0xbe1e6f45	-0.15472133
76	0xbe413f93	-0.18871908
77	0xbd68e8b1	-0.056862537
78	0x3e84757d	0.25870886
79	0x3df2456c	0.118296474
80	0x3ca26830	0.019825071
81	0xbf474b21	-0.7784901
82	0x3ea4b6b2	0.32170635
83	0x3ef4c72d	0.4780821
84	0x3f54cb5f	0.8312282
85	0x3da00576	0.078135416
86	0x3f239f25	0.6391471
87	0xbeb2c286	-0.34914035
88	0xbd184179	-0.037171815
89	0x3d5052bf	0.050860163
90	0x3e2fa37a	0.17152205
91	0x3db2304b	0.087006174
92	0x3f0c63c8	0.54839754
93	0xbf4f2cf7	-0.80927986
94	0x3f754ac2	0.95817196
95	0xbe148884	-0.14505202
96	0xbf59f3e6	-0.85137784
97	0x3e88d9fd	0.26728812
98	0x3ead966c	0.33903825
99	0x3df46040	0.11932421
100	0xbe71d70c	-0.2361719
101	0xbe880733	-0.26567993
102	0x3e2f5061	0.17120506
103	0x3eb30a68	0.34968877
104	0xbcbf637d	-0.02336287
105	0x3c47d9b0	0.012197897
106	0xbf4d0b4e	-0.80095375
107	0xbeaf1535	-0.34195867
108	0x3e985d65	0.29758754
109	0xbe37e8d8	-0.17959917
110	0x3f959d4e	1.168863
111	0x3ec3b967	0.38227388
112	0x3df0ee0b	0.11764153
113	0x3d3e5267	0.046465304
114	0xbe38a4ae	-0.1803157
115	0xbcc32870	-0.023822993
116	0x3eef030d	0.46682015
117	0xbedffdfc	-0.43748462
118	0x3f1126da	0.5669991
119	0xbf5197e1	-0.81872374
120	0x3f24e3ed	0.6441029
121	0x3e3ad996	0.18247065
122	0xbf97eeff	-1.1869811
123	0xbf037f7a	-0.5136639
124	0x3ed05c3d	0.40695372
125	0xbe588d2e	-0.21147606
126	0x3e83fe09	0.2577975
127	0x3e9bf75c	0.30462158
128	0xbe3cef8d	-0.18450756
129	0xbe48925c	-0.19587082
130	0x3e73d253	0.23810701
131	0xbe95e933	-0.2927948
132	0x3dcc754d	0.09983311
133	0xbe0ca52d	-0.13734885
134	0xbda645ca	-0.0811878
135	0xbe1c0f58	-0.15240228
136	0xbdcdeb1e	-0.10054611
137	0xbd2c32c0	-0.042040586
138	0x3dd03274	0.10165873
139	0x3f1efe98	0.6210723
140	0xbebee422	-0.37283427
141	0xbec0204e	-0.37524647
142	0x3d18fa89	0.037348304
143	0xbedff304	-0.43740094
144	0x3f3b4ba1	0.73162276
145	0xbba07993	-0.0048973053
146	0x3ebb2fcd	0.36559907
147	0x3e1b9419	0.15193214
148	0x3c2e840c	0.0106516
149	0x3e287db0	0.16454196
150	0xbeea95d4	-0.45817435
151	0x3dbc7685	0.09202293
152	0x3eba859d	0.36430064
153	0x3dae55fe	0.085124955
154	0xbf2754f3	-0.65364
155	0xbe5f2e15	-0.21794923
156	0x3f67916f	0.9045629
157	0xbe8fafd6	-0.2806384
158	0xbec2cdb1	-0.38047555
159	0xbe8ae76f	-0.27129695
160	0xbefcee17	-0.49400398
161	0xbf0e7b52	-0.5565692
162	0xbedb68b8	-0.42853332
163	0xbe66052f	-0.22462915
164	0x3ee89146	0.45423335
165	0x3d54a498	0.05191478
166	0x3e09f0cf	0.13470767
167	0x3e7c55b6	0.24642071
168	0xbf247d5d	-0.6425379
169	0x3e71a449	0.23597826
170	0x3f95463b	1.1662058
171	0xbe578d61	-0.21050026
172	0xbf26390a	-0.64930785
173	0x3de000ef	0.10937678
174	0x3e8b24a0	0.2717638
175	0xbe870b35	-0.26375738
176	0xbeab9d60	-0.33518505
177	0xbeeebf4e	-0.4663033
178	0x3ed5b7d6	0.41741818
179	0x3f22403b	0.6337926
180	0x3ecb11a0	0.39661884
181	0xbc9df977	-0.019283993
182	0xbe3ca92c	-0.18423909
183	0xbef006e6	-0.46880263
184	0xbf1aa981	-0.6041489
185	0x3e8a6176	0.27027482
186	0xbea3d6a2	-0.3199969
187	0xbee2cf35	-0.4429871
188	0xbe738463	-0.2378097
189	0xbe2d9725	-0.16952188
190	0x3f60ff37	0.87889427
191	0x3eeb22ba	0.45924932
192	0xbe881986	-0.26581973
193	0x3e61aae9	0.22037853
194	0x3eb50415	0.35354677
195	0x3ef7d167	0.4840195
196	0xbe50a774	-0.20376378
197	0xbeb5386e	-0.35394615
198	0x3d814d08	0.06313521
199	0xbf20d4f9	-0.6282497
200	0xbf743516	-0.953935
201	0xbec0bd4c	-0.37644422
202	0x3f5a7f47	0.8535046
203	0xbf101be5	-0.56292564
204	0x3f55c507	0.83503765
205	0x3c9cfef6	0.019164544
206	0x3ee9076e	0.4551348
207	0x3eb774e8	0.3583138
208	0xbf756b98	-0.958673
209	0xbc908636	-0.017642122
210	0xb8406eb6	-4.5879475e-05
211	0x3d3298df	0.04360282
212	0x3e4c7b97	0.19969021
213	0x3f35bb24	0.7098868
214	0x3eee4428	0.46536374
215	0x3e7ffbe4	0.24998432
216	0x3f8dc71c	1.1076388
217	0xbdfc5019	-0.12319965
218	0xbfeb7668	-1.839551
219	0x3f1930ba	0.59839976
220	0x3ec82596	0.39091176
221	0xbd820808	-0.06349188
222	0x3db38e4c	0.08767375
223	0x3f3a9fa7	0.7289986
224	0xbf05176d	-0.5198887
225	0x3f624771	0.8839026
226	0xbe515cab	-0.20445506
227	0xbf58fcad	-0.8476055
228	0x3e54b367	0.20771562
229	0x3f252d82	0.64522564
230	0xbd55c30e	-0.05218797
231	0x3e013588	0.12618077
232	0x3ea5096e	0.32233757
233	0x3da4b459	0.08042211
234	0x3e5ffb5c	0.2187323
235	0x3e8c7e52	0.27440125
236	0xbeeb53b7	-0.45962307
237	0x3e37942e	0.1792762
238	0x3e7482fd	0.23878093
239	0x3f0876e1	0.53306395
240	0xbf3bafcf	-0.7331514
241	0x3e9f90a0	0.31165028
242	0x3ea0f8ef	0.3143992
243	0x3fe9347a	1.821914
244	0xbd59c9da	-0.053171016
245	0x3e982336	0.29714364
246	0x3f22f664	0.6365721
247	0x3f001dae	0.5004529
248	0xbecb714b	-0.39734873
249	0xbec1129b	-0.37709507
250	0xbed5c09f	-0.4174852
251	0x3e9f775d	0.31145754
252	0xbf0fcfab	-0.5617625
253	0xbde215f1	-0.11039341
254	0x3e96a692	0.29423958
255	0x3f26d794	0.65172696

bias_ih_l0 f4 [256]
0	0xbc46f442	-0.012143197
1	0xbe1977b5	-0.14987071
2	0xbe661d92	-0.22472218
3	0xbe7243eb	-0.23658721
4	0xbcd4a43f	-0.025957225
5	0xbe8b2a83	-0.2718087
6	0xbf05b75b	-0.52232903
7	0xbe43d31e	-0.19123504
8	0xbed296af	-0.41130587
9	0xbdef9260	-0.11697841
10	0xbe5f222c	-0.2179038
11	0xbe7439b7	-0.23850141
12	0xbedd94ab	-0.43277487
13	0xb7f2e37a	-2.8954575e-05
14	0xbe20e3b8	-0.15711868
15	0xbe5e2c9d	-0.21696706
16	0xbd9f0132	-0.077639
17	0xbe78e24d	-0.24305077
18	0xbd44c118	-0.04803571
19	0xbd80b439	-0.06284375
20	0xbe56db7f	-0.20982169
21	0xbdfa57bb	-0.122237645
22	0xbe399aac	-0.18125409
23	0xbeae2b31	-0.34017327
24	0xbec6d2a7	-0.3883259
25	0xbd06f979	-0.03295276
26	0xbe43ca4e	-0.19120142
27	0xbeb1867f	-0.34672925
28	0xbe9c4fb3	-0.30529556
29	0x3be9d4d4	0.007135967
30	0x3ddfd061	0.10928417
31	0xbecc84d7	-0.399451
32	0x3c3e6c81	0.011622549
33	0xbdc7aaef	-0.097494
34	0xbe7ac93b	-0.24490826
35	0xbe8cfb6d	-0.27535573
36	0x3e9c2a8e	0.30501217
37	0xbdac58d4	-0.0841538
38	0x3e49b5fe	0.19698331
39	0x3d3760b4	0.044769958
40	0xbeb3bbb6	-0.3510415
41	0xbebc3a01	-0.36763003
42	0xbe21e633	-0.1581047
43	0x3e89d747	0.26922056
44	0xbef43565	-0.47696987
45	0xbcb73675	-0.022364834
46	0x3d5bd60a	0.05367092
47	0xbd1cff55	-0.03832944
48	0xbef58dbc	-0.47959697
49	0xbd696d88	-0.056989223
50	0xbc81816f	-0.015808789
51	0xbebe6581	-0.37186816
52	0x3e07205f	0.13195942
53	0xbe93a75b	-0.2883862
54	0xbe83f013	-0.257691
55	0xbeec13db	-0.461089
56	0xbddb1fe8	-0.10699445
57	0x3d86125d	0.06546471
58	0xbdd73fce	-0.10510217
59	0xbd9603d5	-0.0732495
60	0xbdce7a3e	-0.100819096
61	0xbe7f87fe	-0.2495422
62	0xbe7b84b1	-0.24562337
63	0xbe3c21b3	-0.1837223
64	0xbd845b3c	-0.06462714
65	0xbdad4c26	-0.0846179
66	0x3e822b2b	0.2542356
67	0x3cf809df	0.030278144
68	0xbee70fa5	-0.45129123
69	0x3dcdea20	0.100544214
70	0xbea0ba12	-0.3139196
71	0xbe600b5f	-0.21879338
72	0xbf182fc6	-0.59447896
73	0x3e944b85	0.28963867
74	0xbe391a99	-0.18076552
75	0xbe916627	-0.2839825
76	0xbe34f913	-0.1767314
77	0x3d83da07	0.0643807
78	0xbef1d481	-0.4723244
79	0xbf3cfea3	-0.73826045
80	0xbe9d129c	-0.3067826
81	0xbea634f1	-0.32462266
82	0xbdce7c65	-0.1008232
83	0xbf10896a	-0.5645968
84	0xbec9b275	-0.39393964
85	0xbb8eed86	-0.004361811
86	0x3e559bec	0.2086026
87	0xbe9b5898	-0.3034103
88	0xbd8c2b33	-0.06844177
89	0xbd6446ca	-0.055731572
90	0xbd3b7939	-0.045769904
91	0x3d1ce9cf	0.038308915
92	0x3e9e4b1f	0.30916688
93	0xbdbb089f	-0.09132504
94	0xbe506026	-0.20349178
95	0x3e9746ad	0.2954611
96	0x3d91b93a	0.07115407
97	0xbe82d317	-0.25551674
98	0x3e7c208a	0.24621788
99	0x3b89d596	0.0042063696
100	0xbef41c71	-0.4767795
101	0xbdaa1a8d	-0.083058454
102	0x3e10007b	0.14062683
103	0xbeabedb7	-0.335798
104	0xbe6d73bc	-0.2318868
105	0x3dd73d4c	0.10509738
106	0xbedb1451	-0.42788938
107	0xbe9ef30a	-0.310448
108	0xbe965c01	-0.29367068
109	0xbe917a24	-0.28413498
110	0xbe36fdd2	-0.17870262
111	0xbe799ad7	-0.24375473
112	0x3eada603	0.3391572
113	0xbeabd92f	-0.33564135
114	0xbe9de257	-0.30836746
115	0x3eae992a	0.3410123
116	0xbed793a3	-0.42104825
117	0x3e547b35	0.20750125
118	0xbea426a3	-0.32060727
119	0x3ee54554	0.44779456
120	0xbe99c36f	-0.30031916
121	0xbe978b6f	-0.29598567
122	0xbe91db50	-0.28487635
123	0xbdff3199	-0.12460632
124	0xbe88a401	-0.26687625
125	0x3e4f3d1b	0.20238154
126	0x3ec18248	0.3779471
127	0xbbc57e9f	-0.0060270573
128	0xbd9d3a50	-0.07677138
129	0xbdf0de6a	-0.11761172
130	0x3e472f85	0.19451721
131	0x3c454f2d	0.012042803
132	0xbd06d950	-0.03292209
133	0x3e3b1236	0.18268666
134	0xbbd03f1f	-0.006355181
135	0xbd85ee3c	-0.0653958
136	0x3b64b990	0.0034900643
137	0x3e1c5578	0.15266979
138	0xbe7ca08b	-0.24670617
139	0x3a20354e	0.00061114586
140	0xbcc0676b	-0.023486814
141	0x3d8494d1	0.06473697
142	0xbbd5a5cf	-0.00652001
143	0x3d42bb4a	0.047541894
144	0x3dfa540d	0.12223063
145	0xbe3cfe42	-0.18456367
146	0xbe06ba01	-0.13156892
147	0x3d3e5858	0.04647097
148	0xbe4d4ea8	-0.20049536
149	0x3e28b081	0.16473581
150	0x3d917a02	0.07103349
151	0xbe6df44e	-0.23237726
152	0x3d815f84	0.06317046
153	0x3e060b9e	0.13090369
154	0x3d9c96d9	0.076459594
155	0x3dcbab0f	0.09944736
156	0xbe0ef5ab	-0.13960902
157	0x3e17c4ad	0.1482112
158	0x3d9e0a0e	0.077167615
159	0xbed091f4	-0.40736353
160	0x3e975192	0.2955442
161	0xbe02d676	-0.12777123
162	0xbd6389b4	-0.055551246
163	0x3e363ec2	0.17797378
164	0x3e06c1f5	0.13159926
165	0x3deecf94	0.11660686
166	0x3e8e5c0b	0.27804598
167	0xbe967b2a	-0.29390842
168	0xbd66dfa0	-0.05636561
169	0xbde14089	-0.10998637
170	0xbebf9b8a	-0.37423354
171	0xbd26dd32	-0.040738292
172	0x3e0a8cbb	0.13530247
173	0xbdaa813a	-0.08325429
174	0x3d79cdfe	0.060987465
175	0xbcfc61df	-0.030808387
176	0x3d001661	0.031271342
177	0xbd003c21	-0.031307343
178	0x3e107f51	0.14111067
179	0x3e01cb0f	0.12675117
180	0xbc9f1c8f	-0.019422797
181	0xbe428c75	-0.18998893
182	0x3ec7169f	0.38884446
183	0xbcd711e2	-0.026253644
184	0xbe8cd63e	-0.27507204
185	0xbdb02cd8	-0.08602303
186	0x3db96c5b	0.0905387
187	0xbce07390	-0.027398854
188	0xbf013adc	-0.5048044
189	0x3dd419ed	0.103565075
190	0xbcf1d738	-0.02952157
191	0xbdf2a27c	-0.11847398
192	0xbc03d00b	-0.008045207
193	0xbe6b5764	-0.22982556
194	0xbe629cc3	-0.22130112
195	0xbe1b4760	-0.15163946
196	0xbe6e7840	-0.23288059
197	0xbdab4b7a	-0.083640054
198	0xbde13565	-0.10996512
199	0x3ee0de8f	0.439198
200	0xbf0185fa	-0.50595057
201	0xbe171628	-0.14754546
202	0xbe046b69	-0.12931599
203	0xbe1eb55d	-0.15498872
204	0xbeaf2c62	-0.3421355
205	0x3e728f8f	0.23687576
206	0xbe0b4025	-0.13598688
207	0xbdb953f5	-0.09049217
208	0xbd260287	-0.040529754
209	0xbe40260f	-0.18764518
210	0xbd9764ee	-0.07392298
211	0xbebf101c	-0.37316978
212	0xbe80fc24	-0.25192368
213	0x3dbc7b1c	0.09203169
214	0x3e7dbdcf	0.24779437
215	0xbe88c31a	-0.2671135
216	0xbe99ddc1	-0.30051997
217	0xbe1f06f9	-0.15530004
218	0xbd768a50	-0.0601905
219	0x3d975fa7	0.07391291
220	0xbcfab0d9	-0.030601906
221	0xbe0114a6	-0.12605533
222	0xbe951168	-0.29114842
223	0xba8bd3fa	-0.0010668032
224	0xbe4a1df1	-0.19737984
225	0xbd15afec	-0.036544725
226	0x3eb608a8	0.3555348
227	0x3dd769f5	0.105182566
228	0xbe2e8159	-0.1704153
229	0x3e4a6d37	0.19768225
230	0xbeb954f9	-0.36197641
231	0xbe31e869	-0.17373814
232	0x3e024e2a	0.1272513
233	0xbe85f2bf	-0.26161763
234	0xbe03ad0a	-0.12858978
235	0x3dd4cec3	0.10390999
236	0xbd1c202d	-0.038116623
237	0xbe208d24	-0.15678841
238	0xbe128522	-0.14308599
239	0xbe8d8c0a	-0.27645904
240	0xbe180916	-0.14847216
241	0xbe92dd32	-0.28684384
242	0xbde5d5e8	-0.1122244
243	0xbe8b9be2	-0.27267367
244	0x3ed1bbc1	0.40963557
245	0x3ec27c55	0.37985483
246	0xbe81eda1	-0.2537661
247	0x3e9377cb	0.28802332
248	0xbd3b4c3f	-0.04572701
249	0x3e909378	0.2823751
250	0x3da38efb	0.07986256
251	0x3e7e1578	0.24812877
252	0xbadec478	-0.0016995808
253	0x3ed70965	0.41999355
254	0xbc757271	-0.014980898
255	0xbdc55643	-0.09635594

bias_hh_l0 f4 [256]
0	0xbd8c59cc	-0.06853065
1	0xbe165fa1	-0.14684917
2	0xbe5f7d12	-0.21825054
3	0xbe90a70e	-0.28252453
4	0xbdcf89d3	-0.1013371
5	0xbe1f1fbe	-0.15539452
6	0xbee2d821	-0.44305518
7	0xbd90a5c3	-0.070628665
8	0xbeedca08	-0.464432
9	0xbe2a4e71	-0.16631486
10	0xbdc080e5	-0.09399585
11	0xbe814f5d	-0.25255862
12	0xbec04c59	-0.3755825
13	0xbda2cfe0	-0.07949805
14	0xbc8d1143	-0.017220145
15	0xbe2396ab	-0.15975444
16	0xbe03b432	-0.12861708
17	0xbde9aaf7	-0.11409562
18	0xbdd4cce3	-0.103906415
19	0xbda7dca9	-0.081963845
20	0xbe01f75d	-0.12692018
21	0xbe04cdd3	-0.1296914
22	0xbe0259b0	-0.12729526
23	0xbe9f1584	-0.31071103
24	0xbea09426	-0.31363028
25	0xbda8c897	-0.082413845
26	0xbe838304	-0.25685894
27	0xbeb627aa	-0.35577136
28	0xbe76e45a	-0.24110547
29	0x3db54c25	0.08852414
30	0xbd3a8478	-0.04553649
31	0xbed6476f	-0.41851375
32	0xbdcc6eaa	-0.09982045
33	0x3dcc0128	0.09961158
34	0xbe51e324	-0.20496804
35	0xbe060863	-0.13089137
36	0x3e77cc29	0.24198975
37	0xbe74c8bf	-0.23904704
38	0x3e5697d2	0.20956352
39	0xbd890c5d	-0.06691811
40	0xbe79ece5	-0.24406774
41	0xbe40c40c	-0.18824786
42	0xbeb162d8	-0.34645724
43	0x3e504883	0.20340161
44	0xbeedb036	-0.464235
45	0xbe1afedf	-0.15136288
46	0x3ba83076	0.00513273
47	0xbda78e86	-0.08181481
48	0xbf1a156a	-0.60188925
49	0x3c0a2e48	0.008433886
50	0x3e10e364	0.14149243
51	0xbef603e7	-0.48049852
52	0x3dc93504	0.09824565
53	0xbe807451	-0.25088742
54	0xbe51941d	-0.20466657
55	0xbea0f674	-0.3143803
56	0xbe72c3fb	-0.23707573
57	0xbcdbd17f	-0.026833294
58	0xbe7dde31	-0.2479179
59	0xbe45b25b	-0.19306318
60	0xbe0b3880	-0.13595772
61	0xbe7d20c4	-0.2471953
62	0xbe18725d	-0.14887376
63	0xbe3d500a	-0.18487564
64	0xbe3181b6	-0.17334637
65	0xbd1b9cd8	-0.037991375
66	0x3e9c6b27	0.305505
67	0xbd1fd31c	-0.03901969
68	0xbe7f360f	-0.24922965
69	0x3eaa805a	0.3330105
70	0xbeb03972	-0.34418827
71	0xbec9ce18	-0.3941505
72	0xbeeefb7f	-0.4667625
73	0x3eb882ea	0.3603738
74	0x3cfc295b	0.030781439
75	0xbe7fd4d7	-0.24983536
76	0xbec27dfb	-0.3798674
77	0xbe20952d	-0.15681906
78	0xbe9b2895	-0.303044
79	0xbf4ec6c2	-0.8077203
80	0xbed02728	-0.40654874
81	0xbeac7458	-0.33682513
82	0xbdee9256	-0.11649005
83	0xbf1a2f0f	-0.60228056
84	0xbee17309	-0.44033077
85	0xbd8af08f	-0.06784164
86	0x3e9801d4	0.29688895
87	0xbe2859bc	-0.16440481
88	0x3d9f259c	0.07770845
89	0xbc1339e4	-0.00898597
90	0xbdde8c5a	-0.10866614
91	0x3d2a51c2	0.041581877
92	0x3ec24732	0.37944943
93	0xbdc1728d	-0.09445677
94	0xbe1f43c2	-0.15553191
95	0x3f06e81e	0.5269793
96	0x3cdf4c99	0.027258204
97	0xbec605da	-0.3867634
98	0x3e8b447f	0.27200696
99	0xbe1624bb	-0.14662449
100	0xbeb86aa2	-0.36018854
101	0xbddefda8	-0.10888225
102	0x3c65060a	0.013978491
103	0xbe761eb1	-0.24035145
104	0xbe0a8160	-0.13525915
105	0x3e2fe40e	0.1717684
106	0xbee05ca6	-0.43820685
107	0xbe3511c9	-0.17682566
108	0xbe868b5f	-0.26278207
109	0xbe626897	-0.2211021
110	0xbdfc5c1b	-0.12322255
111	0xbec5000d	-0.384766
112	0x3eb031fb	0.34413132
113	0xbef1bf8b	-0.47216448
114	0xbebaa9e1	-0.36457732
115	0x3e9a0318	0.30080485
116	0xbef7d0f0	-0.48401594
117	0x3e61f95e	0.22067782
118	0xbe24aaff	-0.16080855
119	0x3e6459b0	0.22299838
120	0xbe8401bb	-0.2578257
121	0xbe6552be	-0.22394845
122	0xbd549fda	-0.05191026
123	0xbe47fcd7	-0.19530044
124	0xbe86060a	-0.26176482
125	0x3e59d8c7	0.212741
126	0x3ed4dede	0.41576284
127	0xbd1d8256	-0.038454376
128	0xbd0f655f	-0.035008784
129	0x3dc9e7c8	0.09858662
130	0x3e1e4418	0.15455663
131	0xbc4d01f8	-0.012512676
132	0x3e2b7279	0.16742887
133	0xbc8f57d8	-0.017497942
134	0x3d7e7414	0.06212242
135	0x3d646bcf	0.055766877
136	0xbe3555ec	-0.17708558
137	0xbbb4eaa1	-0.005521134
138	0xbe46036e	-0.19337246
139	0xbdebe004	-0.11517337
140	0x3e17c9fe	0.14823148
141	0xbd4e5645	-0.05037524
142	0xbdfea580	-0.1243391
143	0xbe20e82a	-0.15713564
144	0x3e3060ca	0.17224422
145	0xbdce6438	-0.10077709
146	0xbd240ac4	-0.04004933
147	0xbc02842b	-0.007966082
148	0xbe19a5d0	-0.15004659
149	0x3dd0a311	0.101873524
150	0x3e62d10d	0.22150059
151	0xbe227829	-0.1586615
152	0x3d883a1d	0.06651709
153	0xbc2606e6	-0.010133481
154	0xbde6e48c	-0.112740606
155	0x3ddfca95	0.10927311
156	0xbcbab5c2	-0.022791747
157	0x3e3d237f	0.18470572
158	0xbd0197f7	-0.031639066
159	0xbefed37f	-0.49770734
160	0x3dd5ee9d	0.104459025
161	0xbe11cd77	-0.14238535
162	0xbdbd8004	-0.09252933
163	0x3aa63f36	0.0012683633
164	0x3c2ce6c0	0.010553062
165	0x3dbf28bd	0.09333942
166	0x3e6f5784	0.23373228
167	0xbea7a2b6	-0.32741326
168	0xbe3a439e	-0.18189856
169	0xbdc432e2	-0.095800176
170	0xbe85cad9	-0.26131323
171	0xbd495ea0	-0.049162507
172	0x3e1d5e6b	0.15368049
173	0xbdc45e3d	-0.09588287
174	0x3d7f5684	0.062338367
175	0xbd46735d	-0.048449863
176	0x3dbfcd58	0.09365338
177	0xbd92737e	-0.07150935
178	0x3d94e4c7	0.07270198
179	0x3cb0502d	0.021522606
180	0xbca0a514	-0.019609965
181	0xbc57a937	-0.013162903
182	0x3e800811	0.25006154
183	0xbd30eee3	-0.04319657
184	0xbe26dc82	-0.16295055
185	0xbd8e7768	-0.06956369
186	0x3e602d51	0.21892287
187	0x3db4d31c	0.088293284
188	0xbec8d9f1	-0.39228776
189	0xbdd72031	-0.10504187
190	0xbdea049b	-0.1142666
191	0x3d4361e7	0.04770079
192	0x3e12ce00	0.14336395
193	0xbe405e05	-0.18785866
194	0xbe2e2a03	-0.17008214
195	0xbe0fdbad	-0.14048643
196	0xbe2a3a82	-0.16623881
197	0xbda787f5	-0.081802286
198	0xbc2a457d	-0.010392544
199	0x3ed0f21d	0.40809718
200	0xbf0b88a4	-0.5450537
201	0xbe07f62d	-0.13277502
202	0xbd446d96	-0.04795607
203	0xbe09a695	-0.13442452
204	0xbe2fe996	-0.1717895
205	0x3ddb6dc5	0.10714296
206	0xbd208598	-0.039189905
207	0xbe491efd	-0.19640727
208	0xbd871023	-0.06594875
209	0xbe43e897	-0.19131695
210	0x3d745f86	0.05966141
211	0xbe3241df	-0.1740794
212	0xbd3d5f3e	-0.04623341
213	0xbd1c0fc0	-0.038100958
214	0x3e53e12f	0.2069137
215	0xbee1d1bd	-0.4410533
216	0xbeab8b08	-0.3350451
217	0xbea2d7cf	-0.31805274
218	0xbe2a2ad8	-0.16617906
219	0x3c2c4214	0.010513801
220	0xbdb2012a	-0.08691628
221	0xbe004fae	-0.12530395
222	0xbeb032c4	-0.3441373
223	0xbd6232fb	-0.0552244
224	0xbbec84c8	-0.007217977
225	0xbdc6f58e	-0.097148046
226	0x3e80cb1d	0.25154963
227	0x3e614700	0.2199974
228	0xbe24b08b	-0.16082971
229	0x3e6bb816	0.23019442
230	0xbe1532c5	-0.14570148
231	0xbe44c384	-0.19215208
232	0x3df55e44	0.1198087
233	0xbe8acf4e	-0.27111286
234	0xbeac095c	-0.3360089
235	0x3d9ce362	0.07660557
236	0xbd0d5939	-0.034508917
237	0xbcc916d7	-0.024547024
238	0xbc6a3e27	-0.014297045
239	0xbe20f522	-0.15718511
240	0xbe3c8f3a	-0.18414012
241	0xbeb9f3fc	-0.36318958
242	0x3d941d12	0.07232107
243	0xbeac2c1a	-0.33627397
244	0x3ec38759	0.381892
245	0x3ef38d92	0.47568947
246	0xbe75458c	-0.23952311
247	0x3e86f305	0.26357284
248	0xbe2f5dc6	-0.17125615
249	0x3e4f6fa3	0.2025743
250	0xbc60c21d	-0.013718155
251	0x3dfc7e4d	0.123287775
252	0xbc1af3df	-0.009457557
253	0x3ef46560	0.47733593
254	0xbaa3081a	-0.0012438328
255	0xbd883044	-0.06649831
