deploy/pre_train/h1/motion.pt (torch, 139345 bytes, 10 tensors)

hidden_state f4 [1, 1, 64]
0	0x00000000	0.0
1	0x00000000	0.0
2	0x00000000	0.0
3	0x00000000	0.0
4	0x00000000	0.0
5	0x00000000	0.0
6	0x00000000	0.0
7	0x00000000	0.0
8	0x00000000	0.0
9	0x00000000	0.0
10	0x00000000	0.0
11	0x00000000	0.0
12	0x00000000	0.0
13	0x00000000	0.0
14	0x00000000	0.0
15	0x00000000	0.0
16	0x00000000	0.0
17	0x00000000	0.0
18	0x00000000	0.0
19	0x00000000	0.0
20	0x00000000	0.0
21	0x00000000	0.0
22	0x00000000	0.0
23	0x00000000	0.0
24	0x00000000	0.0
25	0x00000000	0.0
26	0x00000000	0.0
27	0x00000000	0.0
28	0x00000000	0.0
29	0x00000000	0.0
30	0x00000000	0.0
31	0x00000000	0.0
32	0x00000000	0.0
33	0x00000000	0.0
34	0x00000000	0.0
35	0x00000000	0.0
36	0x00000000	0.0
37	0x00000000	0.0
38	0x00000000	0.0
39	0x00000000	0.0
40	0x00000000	0.0
41	0x00000000	0.0
42	0x00000000	0.0
43	0x00000000	0.0
44	0x00000000	0.0
45	0x00000000	0.0
46	0x00000000	0.0
47	0x00000000	0.0
48	0x00000000	0.0
49	0x00000000	0.0
50	0x00000000	0.0
51	0x00000000	0.0
52	0x00000000	0.0
53	0x00000000	0.0
54	0x00000000	0.0
55	0x00000000	0.0
56	0x00000000	0.0
57	0x00000000	0.0
58	0x00000000	0.0
59	0x00000000	0.0
60	0x00000000	0.0
61	0x00000000	0.0
62	0x00000000	0.0
63	0x00000000	0.0

cell_state f4 [1, 1, 64]
0	0x00000000	0.0
1	0x00000000	0.0
2	0x00000000	0.0
3	0x00000000	0.0
4	0x00000000	0.0
5	0x00000000	0.0
6	0x00000000	0.0
7	0x00000000	0.0
8	0x00000000	0.0
9	0x00000000	0.0
10	0x00000000	0.0
11	0x00000000	0.0
12	0x00000000	0.0
13	0x00000000	0.0
14	0x00000000	0.0
15	0x00000000	0.0
16	0x00000000	0.0
17	0x00000000	0.0
18	0x00000000	0.0
19	0x00000000	0.0
20	0x00000000	0.0
21	0x00000000	0.0
22	0x00000000	0.0
23	0x00000000	0.0
24	0x00000000	0.0
25	0x00000000	0.0
26	0x00000000	0.0
27	0x00000000	0.0
28	0x00000000	0.0
29	0x00000000	0.0
30	0x00000000	0.0
31	0x00000000	0.0
32	0x00000000	0.0
33	0x00000000	0.0
34	0x00000000	0.0
35	0x00000000	0.0
36	0x00000000	0.0
37	0x00000000	0.0
38	0x00000000	0.0
39	0x00000000	0.0
40	0x00000000	0.0
41	0x00000000	0.0
42	0x00000000	0.0
43	0x00000000	0.0
44	0x00000000	0.0
45	0x00000000	0.0
46	0x00000000	0.0
47	0x00000000	0.0
48	0x00000000	0.0
49	0x00000000	0.0
50	0x00000000	0.0
51	0x00000000	0.0
52	0x00000000	0.0
53	0x00000000	0.0
54	0x00000000	0.0
55	0x00000000	0.0
56	0x00000000	0.0
57	0x00000000	0.0
58	0x00000000	0.0
59	0x00000000	0.0
60	0x00000000	0.0
61	0x00000000	0.0
62	0x00000000	0.0
63	0x00000000	0.0

weight f4 [32, 64]
0	0x3eca9598	0.39567256
1	0xbe58141d	-0.21101423
2	0x3e33f68f	0.17574523
3	0x3ea78ec2	0.32726103
4	0xbe287c49	-0.16453661
5	0x3c759bb7	0.014990739
6	0xbed9b083	-0.4251748
7	0xbd990b89	-0.07472903
8	0x3ec5abc1	0.386076
9	0xbdf3385b	-0.11875983
10	0xbe8a9977	-0.2707021
11	0x3d8ea45f	0.06964945
12	0x3ebf1d22	0.37326914
13	0x3f206632	0.6265594
14	0xbf257f01	-0.6464692
15	0x3e2ec9fa	0.17069235
16	0xbe9034e4	-0.28165352
17	0x3f1f5c9b	0.6225068
18	0xbd7777a7	-0.060416844
19	0xbead5a69	-0.3385804
20	0x3e0c87d7	0.13723694
21	0xbf28454d	-0.65730745
22	0x3f17701b	0.59155434
23	0xbe560748	-0.20901215
24	0xbd923515	-0.07139031
25	0x3eacd825	0.33758655
26	0x3ec164fd	0.3777236
27	0x3f32ecca	0.6989256
28	0xbe07839f	-0.13233803
29	0xbe952924	-0.2913295
30	0xbf2094d5	-0.627271
31	0x3b9cf543	0.0047899797
32	0x3ee0df08	0.4392016
33	0xbdf5b74e	-0.11997853
34	0xbf3e5f86	-0.7436451
35	0x3ce4ec34	0.027944662
36	0xbf2bf934	-0.6717713
37	0x3dbad530	0.091226935
38	0x3ebee66b	0.3728517
39	0x3ed46821	0.41485694
40	0x3e45abd3	0.19303827
41	0xbee41ebc	-0.44554698
42	0x3cc965c6	0.024584662
43	0x3c8643e5	0.016389797
44	0x3e8267c7	0.254698
45	0xbf340baa	-0.703303
46	0xbf405b47	-0.7513928
47	0xbee27e92	-0.4423719
48	0xbeffb047	-0.49939176
49	0x3f3069ea	0.6891161
50	0xbd8c42f9	-0.068487115
51	0xbe037387	-0.12837039
52	0x3ec6ebeb	0.38851866
53	0xbdc180be	-0.09448384
54	0xbe003644	-0.125207
55	0x3e17879c	0.14797825
56	0x3ee6553a	0.44986898
57	0x3d9e01a1	0.077151544
58	0x3e30c68f	0.17263244
59	0xbf1334d1	-0.57502466
60	0x3e19da31	0.1502464
61	0x3e9fca18	0.31208873
62	0x3e30c3f4	0.1726225
63	0xbeb38580	-0.3506279
64	0x3bfdc85a	0.007744831
65	0x3f0c5d99	0.5483032
66	0xbd9923cd	-0.074775316
67	0xbf28ada5	-0.6588996
68	0x3f4b0a86	0.7931293
69	0xbe9a5efd	-0.30150595
70	0x3e756024	0.23962456
71	0xbeca88e5	-0.39557567
72	0x3f1e409c	0.61817336
73	0x3f4a02d4	0.78910565
74	0xbf67bfb4	-0.9052689
75	0x3df5c11e	0.11999725
76	0x3f00bb96	0.50286233
77	0x3e6e62b0	0.23279834
78	0x3f1faafa	0.62370265
79	0x3e341c67	0.1758896
80	0x3ea8b97a	0.32954007
81	0xbe7b6c8f	-0.2455313
82	0x3f1d6276	0.61478364
83	0xbe39601b	-0.18103068
84	0xbe7276bb	-0.23678105
85	0xba5f7273	-0.0008523829
86	0x3dccf05e	0.10006784
87	0x3d3e537b	0.046466332
88	0x3e102e51	0.14080168
89	0x3ed906e8	0.42388082
90	0x3d56c699	0.05243549
91	0xbe930879	-0.28717402
92	0xbe6a7a81	-0.22898294
93	0xbd24bddd	-0.04022013
94	0xbf88bc29	-1.0682422
95	0xbd884afa	-0.06654926
96	0x3e2419d5	0.16025479
97	0xbeb39429	-0.35073975
98	0xbf05899c	-0.521631
99	0xbeb6024d	-0.3554863
100	0x3e9bf063	0.30456838
101	0xbd6483e7	-0.055789854
102	0xbe98deb2	-0.29857403
103	0xbf3f8908	-0.7481847
104	0x3eb8a55c	0.3606366
105	0xbeb100e3	-0.3457099
106	0x3e1b4c40	0.15165806
107	0x3e65cbe3	0.22441058
108	0x3f25d503	0.64778155
109	0xbee40de0	-0.44541836
110	0xbee57b6a	-0.4482072
111	0xbe80fff2	-0.2519527
112	0xbcd8659b	-0.026415637
113	0x3e0fc2db	0.14039175
114	0x3c9275e7	0.017878486
115	0xbf0bb7ab	-0.5457713
116	0xbe374ba5	-0.1789995
117	0x3e241340	0.16022968
118	0x3f0ce708	0.55040026
119	0x3e4ad3b4	0.19807321
120	0x3ee9d6ef	0.45671794
121	0xbe8abb53	-0.27096042
122	0x3e97de9a	0.2966202
123	0xbe35fe5f	-0.17772816
124	0xbda77e71	-0.08178414
125	0x3d3bbd03	0.045834552
126	0x3e8cbd4f	0.2748818
127	0xbe8578ad	-0.2606863
128	0xbec2fb59	-0.38082388
129	0xbeacf89e	-0.3378343
130	0xbebcaee4	-0.3685218
131	0x3f238117	0.6386885
132	0xbe9e5e69	-0.30931404
133	0x3d9c7d54	0.07641092
134	0x3ec6a52e	0.38797897
135	0xbe299432	-0.16560438
136	0x3da1db26	0.07903127
137	0x3f107d98	0.5644164
138	0xbeb6c90e	-0.35700268
139	0xbe845234	-0.25843966
140	0x3d2ec9b1	0.042672817
141	0x3ebf6438	0.37381148
142	0xbd9caaba	-0.07649751
143	0x3e8ef3fd	0.27920523
144	0xbe551b58	-0.20811212
145	0x3ebd50f3	0.36975822
146	0xbf0636ec	-0.52427554
147	0xbe23f404	-0.16011053
148	0xbe89765c	-0.26848114
149	0xbdc650cf	-0.09683382
150	0xbd5112a0	-0.051043153
151	0xbdd47d56	-0.103754684
152	0x3f17f7a5	0.5936225
153	0x3cc636da	0.024196077
154	0x3ee67819	0.45013502
155	0x3f29ec33	0.66376036
156	0xbdef2146	-0.11676268
157	0xbe7aa0f0	-0.24475455
158	0x3eaeef8b	0.34167132
159	0x3f03a9d6	0.51431024
160	0x3f1d0fb8	0.6135211
161	0x3daa1570	0.0830487
162	0xbeecc014	-0.46240294
163	0x3f2b4f24	0.66917634
164	0xbeaf7656	-0.3426997
165	0xbee59766	-0.4484207
166	0xbbcb1da7	-0.006198603
167	0x3e70b17a	0.23505202
168	0x3ed721ab	0.42017874
169	0xbef35596	-0.47526234
170	0x3d9900d6	0.074708626
171	0xbeabd391	-0.3355985
172	0xbe90b9d6	-0.28266782
173	0xbf25b02c	-0.6472194
174	0xbf0b3e7e	-0.5439223
175	0xbe15725c	-0.14594406
176	0xbe8ca2e8	-0.27468038
177	0x3d213e16	0.03936585
178	0xbd9829e5	-0.07429866
179	0xbebc6748	-0.36797547
180	0x3f2cc9d7	0.67495483
181	0x3e485854	0.19564945
182	0xbcd342e2	-0.025788728
183	0x3f0532b4	0.5203049
184	0x3e849b3c	0.25899684
185	0x3e722fc1	0.23651029
186	0x3ee18816	0.44049138
187	0xbef246bf	-0.473196
188	0x3dbc25b6	0.0918688
189	0x3ee9ec00	0.45687866
190	0xbdd28213	-0.10278716
191	0xbf2f4b74	-0.6847451
192	0xbde85296	-0.11343877
193	0xbe658012	-0.22412136
194	0x3dd1cc6a	0.10244067
195	0xbe7cc172	-0.24683169
196	0xbf2cda89	-0.6752096
197	0x3f0dc39e	0.55376613
198	0xbd9de237	-0.07709163
199	0x3efd59c5	0.4948255
200	0x3eaaa11c	0.33326042
201	0x3e067503	0.13130574
202	0x3eeae7ec	0.45880067
203	0x3e3896b7	0.18026243
204	0xbef4b9cf	-0.4779801
205	0xbeef19ef	-0.46699473
206	0xbf25b4dc	-0.64729095
207	0xbe8c3c74	-0.27389872
208	0x3e9944de	0.29935354
209	0x3ed4aebf	0.4153957
210	0x3e88d122	0.26722056
211	0x3e06b51b	0.13155024
212	0xbe6a6c95	-0.22892983
213	0x3e715859	0.23568858
214	0x3d023c05	0.03179552
215	0x3dcdf4c2	0.100564495
216	0x3e3c2b84	0.18375975
217	0xbed1a843	-0.40948686
218	0xbd1ef37e	-0.03880643
219	0xbf256048	-0.6460004
220	0xbe49ea82	-0.19718364
221	0x3e1fa655	0.15590794
222	0x3f2765d1	0.65389735
223	0xbebdde48	-0.3708365
224	0xbeacdceb	-0.33762297
225	0xbefb81ff	-0.49122617
226	0xbe5283a1	-0.20558025
227	0x3ea039cb	0.31294093
228	0x3eed2e55	0.4632441
229	0x3a720947	0.000923295
230	0x3f51109c	0.8166597
231	0x3e62546f	0.22102521
232	0xbcc4ed71	-0.024039002
233	0x3f73fbce	0.953061
234	0xbea2cd57	-0.31797287
235	0xbe167819	-0.14694251
236	0xbf056b7b	-0.5211713
237	0x3f87ce9a	1.0609925
238	0x3f18ab7c	0.59636664
239	0xbf32e659	-0.6988273
240	0xbd705e2e	-0.058683567
241	0xbdc33b2e	-0.09532772
242	0xbcf784f5	-0.030214766
243	0x3dbdbc3b	0.09264418
244	0xbe5f1f1c	-0.21789211
245	0xbdf03b1f	-0.117300265
246	0xbdc4f465	-0.09616927
247	0xbf391feb	-0.7231433
248	0x3ecdcf8e	0.40197414
249	0xbe539fdf	-0.20666455
250	0xbec12337	-0.3772218
251	0xbe85481a	-0.26031572
252	0xbed0e1c9	-0.4079726
253	0xbe22cc1a	-0.15898171
254	0xbf16c24f	-0.5889024
255	0x3ec49f69	0.3840287

bias f4 [32]
0	0xbd2311e1	-0.039811973
1	0x3d4c841d	0.04993068
2	0x3dec8bb4	0.11550084
3	0xbe31ee69	-0.17376103
4	0xbebee97b	-0.37287506
5	0x3ba36d65	0.004987406
6	0xbe101834	-0.14071733
7	0x3d55751a	0.05211363
8	0xbe87ae4f	-0.26500174
9	0x3dbb92f8	0.091588914
10	0x3b6809e3	0.0035406284
11	0xbd9e0d83	-0.07717421
12	0x3da63d3b	0.081171475
13	0x3dd1e213	0.10248198
14	0x3e8e3beb	0.2778009
15	0x3daa5210	0.083164334
16	0xbd2adfab	-0.041717213
17	0xbe2aa2bf	-0.16663645
18	0x3eb4cc12	0.35311943
19	0xbe0410c5	-0.12897022
20	0xbe150d83	-0.14555936
21	0xbdb30398	-0.0874092
22	0xbeb0a3a1	-0.3449984
23	0xbe6dd033	-0.23223953
24	0xbe538027	-0.20654355
25	0xbe912f77	-0.28356525
26	0x3d02355c	0.03178917
27	0xbdc9a90e	-0.09846698
28	0xbe1de083	-0.15417676
29	0x3db2554e	0.08707677
30	0xbebb3382	-0.36562735
31	0x3da142bb	0.07874056

weight f4 [10, 32]
0	0x3d3a1106	0.04542639
1	0xbc3762d5	-0.011192997
2	0x3dae48fc	0.085100144
3	0xbe302539	-0.172017
4	0x3c8a530d	0.016885305
5	0x3d882c1f	0.066490404
6	0xbe3a0dac	-0.18169278
7	0x3d8da2cf	0.06915819
8	0x3d9180f9	0.07104678
9	0x3e947f0a	0.29003173
10	0x3d63f690	0.055655062
11	0x3ca378cc	0.019955061
12	0x3cbe17e8	0.023204759
13	0xbe51aa2a	-0.20475069
14	0x3c8fe1bc	0.017563693
15	0xbd783607	-0.0605984
16	0xbe4c5323	-0.19953589
17	0xbe01f7ed	-0.12692232
18	0x3dfd7713	0.12376227
19	0xbd9bb391	-0.07602609
20	0x3d293c30	0.041317165
21	0x3d9ad51e	0.0756018
22	0x3d96a936	0.07356493
23	0x3d40b0ff	0.047043797
24	0xbe0dfdbe	-0.13866326
25	0x3e07efca	0.13275066
26	0xbd8dae22	-0.06917979
27	0x3e232bb5	0.15934642
28	0x3d0a22ac	0.033724472
29	0xbe3d5202	-0.18488315
30	0x3dc7dced	0.09758935
31	0x3d53adfe	0.051679604
32	0x3e33d97e	0.17563435
33	0x3f4fc4dd	0.81159765
34	0x3edf3b28	0.4359982
35	0xbf35a53a	-0.7095524
36	0x3e76e1d8	0.2410959
37	0x3ce79627	0.02826984
38	0x3d97516d	0.073885776
39	0x3de0159f	0.10941624
40	0xbe528f5f	-0.20562504
41	0xbe432532	-0.19057158
42	0x3e55962d	0.20858069
43	0x3efb3e27	0.49070856
44	0xbe585643	-0.21126656
45	0xbd8f7c21	-0.070060976
46	0xbe4dc1ff	-0.20093535
47	0xbe38a311	-0.18030955
48	0x3e05c2e8	0.13062632
49	0x3e9e61e0	0.30934048
50	0x3dbd00ae	0.09228645
51	0xbe89189b	-0.26776585
52	0xbe46640e	-0.19374105
53	0x3f16cc22	0.5890523
54	0xbe0a6835	-0.13516314
55	0xbebb961b	-0.3663796
56	0x3dd13b23	0.102163576
57	0x3e08f60b	0.13375108
58	0x3d810c86	0.06301217
59	0xbea1cc2a	-0.31601077
60	0xbd94e403	-0.07270052
61	0x3ece6269	0.40309456
62	0x3e6df418	0.23237646
63	0xbda910a2	-0.082551256
64	0x3d32b137	0.043626036
65	0x3e32ed5e	0.17473361
66	0xbe8413b1	-0.25796273
67	0xbd5f5ac5	-0.054529924
68	0x3d637ab6	0.05553695
69	0xbe5dc99a	-0.21658936
70	0x3e32d273	0.17463093
71	0xbed57314	-0.4168936
72	0xbf13920a	-0.5764471
73	0xbf145605	-0.57943755
74	0x3e73f0d7	0.23822342
75	0x3e18161e	0.14852187
76	0xbe4b3b1b	-0.19846766
77	0xbe1b7de3	-0.1518474
78	0x3e7503ba	0.23927203
79	0xbe9e992f	-0.30976245
80	0x3eb71eae	0.35765594
81	0x3d3dcb55	0.04633649
82	0xbeb2fb1a	-0.349572
83	0x3e87c827	0.26519892
84	0x3ead9ad8	0.339072
85	0xbd204a85	-0.039133567
86	0x3f1126ca	0.5669981
87	0xbe6ad352	-0.22932175
88	0xbe97a410	-0.29617357
89	0xbd3265c9	-0.0435541
90	0xbda49145	-0.080355205
91	0x3e964932	0.2935272
92	0x3eb6e6ef	0.35723063
93	0xbe88a033	-0.26684722
94	0x3ea3d386	0.31997317
95	0xbde94953	-0.113909386
96	0xbdfa8492	-0.12232317
97	0x3daf876b	0.08570751
98	0x3e12c513	0.1433299
99	0xbe5fdad6	-0.21860823
100	0xbce81a7a	-0.028332938
101	0xbcd436e7	-0.025905086
102	0xbec820a2	-0.39087397
103	0x3f267683	0.65024585
104	0xbd8a9d9c	-0.06768343
105	0xbea14330	-0.31496572
106	0x3e9e2fcb	0.30895838
107	0xbd249764	-0.04018344
108	0x3e505538	0.20345008
109	0xbda6c96c	-0.08143887
110	0x3ea585a0	0.3232851
111	0x3e9cc96e	0.3062243
112	0x3d598e38	0.053114146
113	0xbd408294	-0.04699953
114	0x3ec60dd7	0.38682434
115	0x3e7ad070	0.24493575
116	0x3db7cba9	0.08974392
117	0xbe82475a	-0.25445062
118	0xbe83b1bd	-0.2572154
119	0x3e2ca832	0.16861036
120	0xbe2ad163	-0.16681437
121	0xbebbfeda	-0.36717874
122	0x3e291f5c	0.16515869
123	0xbd4568df	-0.048195716
124	0x3e96ca9b	0.2945145
125	0x3dbef6b5	0.093243994
126	0xbdd78ebd	-0.10525272
127	0xbdf7a917	-0.12092798
128	0xbd33906c	-0.043838903
129	0xbe3e6a7b	-0.18595307
130	0x3e17dbfa	0.14830008
131	0x3dca751a	0.098856166
132	0x3e12e43b	0.14344876
133	0x3d5fc484	0.05463077
134	0xbf108e9c	-0.56467605
135	0xbe162ce2	-0.14665559
136	0x3e8d66ea	0.2761758
137	0xbf5881f1	-0.84573275
138	0xbde1c34c	-0.11023578
139	0x3f229b85	0.63518554
140	0xbe17fd27	-0.14842664
141	0x3e70ebb6	0.23527417
142	0xbd5e0e7b	-0.05421303
143	0x3e791870	0.24325728
144	0xbf30c9bc	-0.6905782
145	0x3f5d99dc	0.86562896
146	0xbf0d6832	-0.55237114
147	0xbd0696cc	-0.032858655
148	0x3d47e02b	0.048797768
149	0x3e9e0a92	0.3086744
150	0xbe9691ad	-0.29408017
151	0x3f1beaa6	0.6090492
152	0xbefeb68b	-0.49748644
153	0x3ed3bdc1	0.41355708
154	0xbf0827e4	-0.5318587
155	0x3e4c7005	0.19964607
156	0x3fc3b894	1.5290704
157	0x3eadf813	0.33978328
158	0xbeae1198	-0.33997798
159	0xbe8101a8	-0.25196576
160	0xbd4d07d8	-0.05005631
161	0x3dbadfa2	0.09124686
162	0xbe8a9615	-0.27067629
163	0x3d78c6b2	0.060736366
164	0x3dbba089	0.09161479
165	0xbd20262b	-0.0390989
166	0x3e0e635d	0.13905092
167	0x3c072bfe	0.008250235
168	0x3e7113aa	0.23542657
169	0xbdd0e673	-0.10200205
170	0x3d6bae55	0.057539303
171	0x3da8d4f5	0.08243743
172	0x3d21cee8	0.03950396
173	0x3ded37ca	0.115829065
174	0xbe17440e	-0.14772055
175	0xbda79e2c	-0.08184466
176	0xbdf7ccd6	-0.12099616
177	0x3d83ed00	0.064416885
178	0x3e13ca82	0.1443272
179	0x3e46ee5d	0.19426866
180	0xbe604c99	-0.2190422
181	0x3d2c62a5	0.042086262
182	0x3d5d5593	0.054036688
183	0xbd026804	-0.03183748
184	0xbdbd6726	-0.0924819
185	0xbde4ce16	-0.1117212
186	0x3d9d66e9	0.07685644
187	0x3cd0071d	0.025394017
188	0xbd06759c	-0.032827005
189	0x3cfacb0c	0.030614398
190	0xbca928c9	-0.02064933
191	0xbd80fcc5	-0.06298212
192	0xbf3a9d7d	-0.7289656
193	0x3e63a754	0.222318
194	0xbee0deb1	-0.439199
195	0x3d69994f	0.057030972
196	0xbebcd28d	-0.36879387
197	0xbdd55500	-0.10416603
198	0x3eb325a8	0.34989667
199	0xbe79e07a	-0.24402037
200	0x3e78a7fb	0.2428283
201	0x3cf0d6ce	0.029399302
202	0xbde8f854	-0.1137549
203	0xbe46c2b5	-0.19410212
204	0xbeacc182	-0.33741385
205	0xbdd5f2dd	-0.10446713
206	0x3eb15e93	0.34642467
207	0x3f23fca1	0.64057356
208	0xbd1ac8d9	-0.0377892
209	0xbe53e26b	-0.2069184
210	0x3d96c094	0.0736095
211	0xbe8484f2	-0.2588268
212	0x3f03681b	0.5133073
213	0x3db3614a	0.08758791
214	0xbd677e62	-0.056517012
215	0x3ea00220	0.3125162
216	0xbe2689b7	-0.16263472
217	0xbe3f46db	-0.18679373
218	0xbe4f2067	-0.20227204
219	0x3f17af9a	0.5925232
220	0xbc4e586c	-0.012594324
221	0x3e605d64	0.21910626
222	0x3eb34479	0.35013178
223	0x3e97d09f	0.29651353
224	0xbe1cf950	-0.1532948
225	0x3ebdcf82	0.37072378
226	0xbec79b05	-0.38985458
227	0xbef2f144	-0.47449696
228	0x3e13833e	0.14405534
229	0xbe28fdc0	-0.16503048
230	0xbe5bf6be	-0.21480843
231	0xbd80e8a2	-0.06294371
232	0x3eb84d41	0.3599644
233	0x3e34c4f9	0.17653264
234	0xbe3615e7	-0.17781793
235	0xbe99c7b6	-0.3003518
236	0x3abdb655	0.0014473895
237	0x3d44e4aa	0.048069634
238	0xbc784100	-0.015152216
239	0xbe78cb7f	-0.24296378
240	0xbf007743	-0.5018198
241	0x3e91db3d	0.28487578
242	0xbed84f80	-0.42248154
243	0xbe34873d	-0.17629714
244	0x3e9643f9	0.29348734
245	0xbdacb51b	-0.084329806
246	0x3eb6894c	0.35651624
247	0x3d337fc5	0.043823022
248	0x3eee6bdc	0.46566665
249	0x3e4ef8dd	0.20212121
250	0xbde37a80	-0.111073494
251	0xbe3b29f1	-0.18277718
252	0xbe86c5c9	-0.26322773
253	0xbe18a386	-0.14906129
254	0xbd53f089	-0.051743064
255	0xbf041103	-0.5158846

bias f4 [10]
0	0x3d87be68	0.06628114
1	0x3ccbf695	0.024897853
2	0xbedf79fb	-0.4364775
3	0x3e954bb9	0.29159334
4	0xbeaa2357	-0.33230087
5	0xbd152e3f	-0.036421057
6	0xbdc2b950	-0.09508002
7	0xbefe1b6b	-0.49630293
8	0x3ec4053d	0.38285246
9	0xbf151c4f	-0.5824632

weight_ih_l0 f4 [256, 41]
0	0xbf8eafbb	-1.1147379
1	0x3f050564	0.5196135
2	0x3ddf09e3	0.108905576
3	0x3f27845d	0.65436345
4	0x3f926941	1.1438371
5	0x3eff3c1d	0.4985055
6	0xbe29f986	-0.16599092
7	0xbe727191	-0.23676135
8	0x3e5ed3d0	0.21760488
9	0xbebf680b	-0.37384066
10	0xbfd23dce	-1.6425111
11	0x3e462f0f	0.19353889
12	0x3c90876c	0.0176427
13	0xbe513af9	-0.20432653
14	0x3f3a3297	0.72733444
15	0xbeac32ba	-0.3363245
16	0x3d122bbe	0.035686247
17	0xbf169858	-0.5882621
18	0x3e7c26e9	0.24624218
19	0x3e14c579	0.14528455
20	0x3f8ef2c3	1.1167835
21	0x3f0b7e72	0.54489815
22	0xbec034a5	-0.37540165
23	0xbefcfc5b	-0.49411282
24	0xbf018eec	-0.50608706
25	0x3f976331	1.1827146
26	0xbf1623e4	-0.58648515
27	0xbf8b1f53	-1.0868934
28	0x3e7ad0cf	0.24493717
29	0xbc2f1f7e	-0.010688661
30	0xbe018c13	-0.1265109
31	0x3f11c365	0.56938773
32	0xbe56b148	-0.20966065
33	0xbe30a29e	-0.17249534
34	0xbe60a753	-0.21938829
35	0xbcab267b	-0.020892372
36	0x3d87a011	0.06622327
37	0x3e2f23a4	0.1710344
38	0xbcc4dbb7	-0.02403055
39	0xbd8ed83a	-0.06974836
40	0x3f300e0c	0.68771434
41	0x3f025f90	0.50927067
42	0xbef8cdc1	-0.48594478
43	0x3fa0e94d	1.2571198
44	0xbf698581	-0.91219336
45	0x3e5b69c2	0.21427062
46	0x3f118f2c	0.5685909
47	0x3e65304e	0.22381708
48	0xbeaa8c11	-0.33309987
49	0x3ff8f8e4	1.9450955
50	0xbf8c9d07	-1.0985421
51	0xc0049288	-2.0714436
52	0xbea654e6	-0.32486647
53	0xbf28764b	-0.658055
54	0x3f6a97cc	0.91637874
55	0x3f30a3da	0.6900002
56	0x3ed63e54	0.41844428
57	0xbeb49e01	-0.35276797
58	0xbf169628	-0.5882287
59	0x3eed9ef8	0.46410346
60	0x3ce0c776	0.02743886
61	0x3f3e1dac	0.74264026
62	0xbf800f76	-1.0004718
63	0x3e85804e	0.2607445
64	0xbf25c2f9	-0.6475063
65	0xbecf47af	-0.40484378
66	0xbfdf4119	-1.7441741
67	0xbef56d12	-0.47934777
68	0xbeffa696	-0.49931782
69	0xbf232657	-0.63730377
70	0xbe9cc90b	-0.30622134
71	0x3e2c3958	0.1681875
72	0x3dc27cb1	0.09496439
73	0x3df65aec	0.12029061
74	0x3cce265e	0.02516478
75	0x3dac9d0e	0.08428393
76	0x3e154262	0.14576104
77	0x3d6a77c3	0.05724312
78	0x3e43a33e	0.1910524
79	0x3bc723d3	0.0060772686
80	0xbf825706	-1.0182807
81	0xbea41015	-0.3204352
82	0x3c516314	0.01277997
83	0xbe02d9cb	-0.12778394
84	0x3e6ff6e5	0.23434027
85	0xbf1bc1a5	-0.60842353
86	0x3e1cc19f	0.15308236
87	0x3db94ba1	0.09047628
88	0x3e361286	0.17780504
89	0xbca230b6	-0.019798618
90	0x3dfb3ef9	0.122678705
91	0xbe7f7a05	-0.2494889
92	0x3e559a3a	0.20859614
93	0xbea181ef	-0.31544444
94	0x3f0a50e8	0.54029703
95	0x3e6e2518	0.23256338
96	0xbeaedb74	-0.34151804
97	0xbf291866	-0.66052854
98	0x3d0403c1	0.032230143
99	0x3edbf826	0.4296276
100	0x3f1ac795	0.6046079
101	0xbe22e8ee	-0.15909168
102	0xbe812161	-0.2522078
103	0x3ef7b25a	0.4837826
104	0x3eff956a	0.4991868
105	0xbe0fd00a	-0.14044204
106	0xbdee94b6	-0.11649458
107	0xbee7df87	-0.45287725
108	0xbf4c93b1	-0.7991286
109	0x3e49c71d	0.19704862
110	0xbb7bca20	-0.0038420036
111	0xbd0abc3e	-0.033870928
112	0xbe0b8a56	-0.1362699
113	0x3e3171e0	0.17328596
114	0xbe2b97dc	-0.16757149
115	0x3cba3139	0.02272855
116	0xbdef66e2	-0.11689545
117	0xbc1fe9c2	-0.009760322
118	0x3da73e0a	0.0816613
119	0xbe7513ba	-0.23933306
120	0x3bb1b997	0.0054237354
121	0x3e939c56	0.28830212
122	0xbea27b05	-0.3173448
123	0x3d88c1c9	0.066775866
124	0x3f0e2466	0.5552429
125	0x3ce4e9cc	0.027943514
126	0x401e0f5e	2.469688
127	0x3fddd67b	1.7331079
128	0x3a084f7b	0.0005199832
129	0x3f8b55cb	1.0885557
130	0xbe13bec2	-0.14428237
131	0xbe2e190c	-0.17001742
132	0xbed9dba9	-0.425504
133	0xbf3ec8b1	-0.7452498
134	0x3de77ecf	0.11303484
135	0xbeefaa1a	-0.46809465
136	0xbf86cb0b	-1.0530714
137	0xbf3b2c6d	-0.73114663
138	0x3ec8e7e4	0.39239419
139	0xbe8d1906	-0.27558154
140	0xbf9d3d26	-1.2284286
141	0xbe93335a	-0.28750116
142	0x3e521b37	0.20518194
143	0x3ea38590	0.31937838
144	0x3ef688cd	0.48151246
145	0x3ea5abd6	0.32357663
146	0xbf153801	-0.5828858
147	0xbed03bbf	-0.40670583
148	0xbf0f35bc	-0.5594137
149	0xbee20854	-0.4414698
150	0x3e837d94	0.25681746
151	0x3f390a0b	0.7228095
152	0x3ea98d2a	0.33115512
153	0xbcd10018	-0.02551274
154	0x3d962660	0.07331538
155	0xbe59c81d	-0.21267743
156	0x3e16d855	0.14730962
157	0x3eaa73f0	0.33291578
158	0xbcdc868b	-0.026919624
159	0x3d24c629	0.040228043
160	0x3ee08374	0.4385029
161	0xbdc913dc	-0.09818241
162	0x3efe0bfa	0.49618512
163	0xbf3e35ae	-0.7430066
164	0x3d069166	0.032853507
165	0x3e774d03	0.24150471
166	0xbda58b62	-0.08083226
167	0x3f220b06	0.6329807
168	0x3d02467b	0.031805497
169	0x3e153085	0.1456929
170	0xbcbd37f3	-0.023097968
171	0x3d5409e0	0.05176723
172	0x3c6faa8d	0.014628065
173	0x3e20576c	0.15658349
174	0x3df207e3	0.118179105
175	0xbf0ead0f	-0.55732816
176	0x3cb40873	0.021976685
177	0xbe98c54e	-0.29838032
178	0xbe8def1c	-0.27721488
179	0x3e985607	0.29753134
180	0xbee0e768	-0.4392655
181	0x3cb4185f	0.021984277
182	0xbe1911f9	-0.14948262
183	0xbf64b5f3	-0.8934013
184	0x3f013691	0.50473887
185	0x3e193c80	0.14964485
186	0xbe19010a	-0.14941803
187	0xbcb2c715	-0.021823445
188	0x3eafe024	0.34350693
189	0xbe7bb607	-0.24581157
190	0xbebef59f	-0.3729677
191	0xbe1144b4	-0.14186364
192	0xbd269082	-0.040665157
193	0x3d01c6db	0.031683784
194	0x3d0a3ca5	0.03374924
195	0x3d1ff011	0.039047305
196	0x3d865de5	0.06560878
197	0x3bba53cb	0.0056862584
198	0x3df09833	0.1174778
199	0x3d5543c5	0.052066583
200	0x3b83a274	0.0040171687
201	0xbc95baa5	-0.018277476
202	0x3cd36ccb	0.025808712
203	0xbb5c7e06	-0.0033644452
204	0xbd8810bf	-0.06643819
205	0x3f98d7f6	1.1940906
206	0xbfdcad35	-1.7240359
207	0x3f5e72be	0.8689383
208	0xc00c75b7	-2.1946847
209	0xc03ad517	-2.919256
210	0x3e5eaf08	0.21746457
211	0x3d8d74c9	0.069070406
212	0x3dcbdfeb	0.09954818
213	0x3e83ceac	0.25743616
214	0xbef2d62c	-0.47429025
215	0xc0115998	-2.2710934
216	0xbfa8573f	-1.3151625
217	0xbf4fbfca	-0.8115202
218	0x3e8c7a5e	0.2743711
219	0xbf5027a0	-0.8131046
220	0x3cedf355	0.029046694
221	0x3ef9cc54	0.48788702
222	0x3e90ca57	0.28279373
223	0x3f88c648	1.0685511
224	0xbf071001	-0.52758795
225	0xbe64d7b1	-0.22347905
226	0xc027f604	-2.6243906
227	0xbf10809c	-0.5644624
228	0x3ee5fce5	0.44919506
229	0x3deaa303	0.11456873
230	0x3fd9aeea	1.7006505
231	0xbf132742	-0.5748178
232	0x3f0c2840	0.54748917
233	0x3f82ae1c	1.0209384
234	0x3ecc414a	0.39893562
235	0xbd8264e2	-0.06366898
236	0xbe49d018	-0.19708288
237	0x3a954c9c	0.0011390629
238	0xbda72d39	-0.081629224
239	0xbc8d7bd7	-0.017270966
240	0xbe10fb54	-0.14158374
241	0x3e88643f	0.26638982
242	0x3e446e38	0.1918267
243	0xbd4f9322	-0.050677426
244	0x3ef889da	0.48542672
245	0xbe002931	-0.12515713
246	0xbea38243	-0.3193532
247	0xbeaeeb10	-0.34163713
248	0x3dd20622	0.10255076
249	0xbefc6ad0	-0.4930024
250	0xbeb4fe73	-0.3535038
251	0x3a999edd	0.0011720319
252	0x3da57486	0.08078866
253	0x3d3fcb8d	0.04682498
254	0x3f0dc180	0.5537338
255	0x3e61edf3	0.22063427

weight_hh_l0 f4 [256, 64]
0	0x3e19e7e8	0.15029871
1	0xbedd9643	-0.43278703
2	0x3cd0e6bf	0.025500653
3	0xbd69c2a0	-0.057070374
4	0x3f0fd150	0.5617876
5	0xbfa00e6f	-1.2504405
6	0x3ef1c32c	0.47219217
7	0x3e452171	0.19251038
8	0x3f03c1f6	0.51467836
9	0x3eefb1c4	0.46815312
10	0xbf28fffd	-0.6601561
11	0x3f349b24	0.70549226
12	0xbf63bfc9	-0.88964516
13	0xbdd15146	-0.1022058
14	0x3d605758	0.054770797
15	0x3de41001	0.11135865
16	0x3d20d2a4	0.039263383
17	0x3ef9c627	0.4878399
18	0x3f2827b1	0.65685564
19	0xbf0d0f29	-0.5510126
20	0x3e2f6309	0.17127623
21	0xbeca2968	-0.39484715
22	0x3f9c905c	1.2231555
23	0x3f1a8b01	0.60368353
24	0xbf74e21b	-0.9565751
25	0x3f139412	0.5764781
26	0x3f8f3201	1.1187135
27	0x3fd63030	1.6733456
28	0xbd1efc54	-0.038814858
29	0xbed2756e	-0.41105217
30	0xbf1784a3	-0.5918676
31	0x3f12d9d5	0.57363635
32	0xbf3b6f02	-0.7321626
33	0x3d936a68	0.0719803
34	0x3f19c3a7	0.60064167
35	0x3f043f24	0.51658845
36	0xbeb73879	-0.35785273
37	0xbe58801c	-0.2114262
38	0x3f33109e	0.6994723
39	0xbedcaffa	-0.4310301
40	0x3edad6fa	0.4274214
41	0xbf68349e	-0.9070529
42	0xbf0dd984	-0.5541003
43	0xbf7a7ff0	-0.9785147
44	0xbf05dd93	-0.5229122
45	0x3f025bde	0.5092143
46	0xbd07c97f	-0.033151146
47	0xbeb020dd	-0.34400073
48	0x3e1cc468	0.15309298
49	0xbe902db4	-0.2815987
50	0x3ea6d8eb	0.3258737
51	0xbf0addee	-0.5424489
52	0xbec1aea1	-0.37828544
53	0xbf417ccf	-0.7558107
54	0xbdbb8636	-0.09156458
55	0xbec13aa3	-0.3774005
56	0xbd59ab80	-0.05314207
57	0xbe2854e6	-0.16438636
58	0x3c3f1879	0.01166355
59	0xbee0e050	-0.43921137
60	0xbea835e6	-0.3285362
61	0x3f089460	0.533514
62	0xbf0e9801	-0.5570069
63	0xbf1ef50d	-0.6209267
64	0xbe6ee4b4	-0.23329431
65	0xbeb90c13	-0.36142024
66	0xbe994de0	-0.29942226
67	0x3e8e2708	0.27764153
68	0xbf291219	-0.6604324
69	0x3ec1df7d	0.3786582
70	0xbe999475	-0.29996076
71	0xbf7bca97	-0.98356
72	0xbf52e5f9	-0.8238216
73	0x3f7e7a59	0.9940544
74	0x3ed2bdad	0.41160336
75	0xbd2b643f	-0.04184365
76	0xbf04969f	-0.5179233
77	0xbe1eb2ba	-0.15497866
78	0x3f8a3e85	1.080033
79	0x3e8545c5	0.26029792
80	0xbf0b1e71	-0.54343325
81	0xbf3cc655	-0.7374013
82	0x3eaf872f	0.34282824
83	0x3f6bcb64	0.92107224
84	0x3f8572e1	1.0425683
85	0x3dd3b502	0.10337259
86	0x3d002f8f	0.031295355
87	0xbf0e17f7	-0.5550532
88	0x3ed1de6f	0.40990016
89	0xbfc012b6	-1.500571
90	0xbf1a079e	-0.6016787
91	0xbeecb5d4	-0.46232474
92	0x3e6f5948	0.23373902
93	0x3f3d6aa1	0.7399083
94	0x3e5a8c38	0.21342552
95	0xbe596280	-0.21228981
96	0xbf8a09f6	-1.078429
97	0xbfa167a8	-1.2609758
98	0xbf5e5159	-0.86842877
99	0xbdaa0674	-0.08302012
100	0x3e218d71	0.15776612
101	0xbe3c03eb	-0.1836087
102	0x3f30042d	0.6875637
103	0xbee4173f	-0.44548985
104	0x3fb3f96e	1.4060495
105	0x3d583259	0.05278239
106	0xbf153570	-0.58284664
107	0xbef7ac53	-0.4837366
108	0xbe9b47d9	-0.30328253
109	0xbda544a5	-0.080697335
110	0xbf728826	-0.94738996
111	0x3f64b0f2	0.893325
112	0x3eb3d192	0.35120827
113	0x3f478af8	0.77946424
114	0xbf4139f9	-0.75479084
115	0x3f323b8a	0.696221
116	0xbf843875	-1.0329729
117	0xbf2a743f	-0.6658363
118	0x3ed67512	0.41886193
119	0xbe71a92b	-0.23599689
120	0xbdd6bbfb	-0.10485073
121	0x3e921177	0.2852895
122	0xbef7a655	-0.4836909
123	0xbf3e72fb	-0.74394196
124	0xbeb24e1b	-0.34825215
125	0x3f354c50	0.7081957
126	0xbf363687	-0.7117695
127	0x3ece0b3a	0.4024294
128	0xbe0db71e	-0.13839385
129	0x3dcdbe66	0.10046081
130	0x3f1852ee	0.5950154
131	0xbc429c71	-0.011878119
132	0xbe0ae504	-0.13563925
133	0xbd2dd05d	-0.04243504
134	0x3da97faf	0.08276307
135	0xbd8a5a6b	-0.06755527
136	0x3e2ccf33	0.16875915
137	0x3e118f74	0.1421488
138	0xbe8e47f0	-0.2778926
139	0x3e2d13f4	0.16902143
140	0xbe744938	-0.23856056
141	0xbc9d9070	-0.019233912
142	0x3e0715e2	0.13191941
143	0x3ef824fb	0.48465714
144	0xbdf2aa33	-0.11848869
145	0xbe68b8cf	-0.22726749
146	0xbf34726f	-0.7048711
147	0x3dd5547b	0.10416504
148	0x3e16a9c6	0.14713201
149	0xbc4acd8e	-0.01237811
150	0xbe0840e4	-0.13306004
151	0x3f72aef0	0.94798183
152	0x3d8b17f5	0.06791679
153	0xbea36476	-0.31912583
154	0x3e64bb4d	0.22337075
155	0xbf23a0b6	-0.639171
156	0xbdf3edf1	-0.11910618
157	0x3eff4665	0.49858394
158	0x3eaf235c	0.34206665
159	0xbd37bbd9	-0.04485688
160	0x3e6be32c	0.23035878
161	0xbdadf93a	-0.08494802
162	0x3e9bba41	0.30415538
163	0x3eebae64	0.46031487
164	0xbe947878	-0.2899816
165	0xbe99173f	-0.29900548
166	0x3e3db712	0.18526867
167	0x3de2e739	0.110792585
168	0x3e10aa49	0.14127459
169	0x3e23e5ed	0.16005678
170	0x3dd50e49	0.10403115
171	0xbe35b320	-0.17744112
172	0xbf2bfef7	-0.6718592
173	0xbccd92b7	-0.025094373
174	0x3f016d79	0.50557667
175	0x3ed9e2e6	0.42555922
176	0x3d8e5b48	0.06951004
177	0x3e83e992	0.25764138
178	0xbec140b5	-0.3774468
179	0xbe78c788	-0.24294865
180	0x3e67383c	0.22580045
181	0xbdc5dc21	-0.09661127
182	0xbdf30e33	-0.11867943
183	0x3e516b6d	0.20451136
184	0x3ec538ab	0.38519797
185	0xbd180ab2	-0.037119575
186	0xbe3eb96d	-0.18625422
187	0x3edc7f98	0.43066096
188	0x3ee9364b	0.45549235
189	0x3e9879f1	0.29780534
190	0xbe9a31bf	-0.30116078
191	0x3e3c3128	0.18378127
192	0xbfe3995d	-1.7781178
193	0x3f10873c	0.5645635
194	0x3f140436	0.57818925
195	0x3f46be65	0.7763427
196	0xbebe99b7	-0.3722665
197	0xbf038002	-0.513672
198	0x3dc3ab5b	0.09554168
199	0xbf2ffaa7	-0.6874184
200	0xbe045dc0	-0.12926388
201	0x3e106784	0.14101988
202	0xbe8e25ed	-0.2776331
203	0xbaa3b093	-0.0012488536
204	0xbf5f9736	-0.87340105
205	0x3f6bad28	0.9206109
206	0x3fcde7b6	1.6086338
207	0x3e8035bc	0.25040996
208	0xbf04ebce	-0.5192231
209	0xbe271659	-0.16317119
210	0x3d44f0e1	0.048081283
211	0x3d5be0a5	0.053681035
212	0xbf006a3d	-0.50162107
213	0x3e478dbf	0.19487666
214	0x3e145997	0.14487301
215	0x3fb8728f	1.440996
216	0xbe89c85a	-0.2691067
217	0x3ebf59d0	0.3737321
218	0xbe814434	-0.25247347
219	0xbefd5e17	-0.49485847
220	0x3d3b69fe	0.04575538
221	0x3e1e6769	0.15469135
222	0x3f78b72c	0.971545
223	0x3e95318b	0.2913936
224	0xbdd4dbc5	-0.1039348
225	0xbf331e13	-0.69967765
226	0x3f3919c7	0.7230496
227	0xbf64583d	-0.8919714
228	0x3d9c0281	0.07617665
229	0x3e17c263	0.14820246
230	0xbeb4ba9d	-0.35298625
231	0xbecbc3aa	-0.39797717
232	0x3e8b69fe	0.27229303
233	0x3fa3968e	1.2780321
234	0x3f6ae408	0.917542
235	0xbe920fa2	-0.28527552
236	0x3d9af2c6	0.075658366
237	0xbf1686d9	-0.5879951
238	0xbe297dc3	-0.1655188
239	0x3fe4ff16	1.7890346
240	0x3f702467	0.93805546
241	0x3e80068f	0.25005004
242	0x3f0355e9	0.51302963
243	0x3ed8d776	0.42351884
244	0xbf469c53	-0.7758228
245	0x3f90fc43	1.1326984
246	0xbf449c30	-0.76800823
247	0x3f0e5a91	0.55606943
248	0x3f9d3846	1.2282798
249	0xbfaa5bd7	-1.3309277
250	0x3f713fcd	0.9423798
251	0xbf243de9	-0.6415697
252	0xbf476078	-0.77881575
253	0xbf1e32a7	-0.6179604
254	0xbd123e96	-0.035704218
255	0x3fb0e286	1.381913

bias_ih_l0 f4 [256]
0	0xbf080418	-0.53131247
1	0xbe53e2ef	-0.20692037
2	0xbf15f311	-0.58574015
3	0xbdd95162	-0.10611226
4	0xbefb009a	-0.49023896
5	0xbe5ea2a9	-0.21741737
6	0x3de744fb	0.11292454
7	0xbd4b1ddb	-0.04958902
8	0x3d42a244	0.04751803
9	0xbe07c24b	-0.1325771
10	0xbef72791	-0.48272374
11	0xbf0d64f7	-0.55232185
12	0xbe28e5cc	-0.1649391
13	0xbeb1e690	-0.34746218
14	0x3ca849bf	0.020542977
15	0xbd33c69f	-0.04389059
16	0xbf0565d4	-0.521085
17	0xbe49aed7	-0.19695602
18	0xbee5623f	-0.44801518
19	0x3dae9eef	0.08526408
20	0x3ce60b6f	0.028081624
21	0xbf45c8a8	-0.772593
22	0x3db5f291	0.088841565
23	0xbe4fe6ac	-0.20302838
24	0xbf44c11c	-0.7685716
25	0xbf0c736d	-0.54863626
26	0xbf235ac0	-0.6381035
27	0xbe06a433	-0.13148575
28	0xbe9f1b6d	-0.31075612
29	0xbe8f54d6	-0.27994412
30	0xbedbed37	-0.42954418
31	0xbeadbe39	-0.3393419
32	0xbc37c467	-0.01121626
33	0xbf00fd10	-0.5038614
34	0xbe596f38	-0.21233833
35	0xbe6261d3	-0.2210763
36	0xbeb3c25d	-0.35109225
37	0x3ea675f9	0.3251188
38	0xbe8d3638	-0.27580428
39	0xbe87ce3f	-0.2652454
40	0xbeab5f0b	-0.3347095
41	0xbf32b91b	-0.698137
42	0xbe8cdc1a	-0.27511674
43	0xbe26b462	-0.16279748
44	0xbef55b55	-0.47921243
45	0xbe20b333	-0.15693359
46	0xbea20cd1	-0.31650403
47	0xbed8d182	-0.42347342
48	0xbf055d34	-0.5209534
49	0x3d10c71f	0.035346147
50	0xbecef715	-0.40422884
51	0xbe81c4c4	-0.25345433
52	0xbd4e9ffd	-0.050445545
53	0xbdd8b78f	-0.10581886
54	0xbdcde93c	-0.100542516
55	0xbe9a614e	-0.30152363
56	0xbc8db0be	-0.017296191
57	0xbe99fefa	-0.30077344
58	0xbe3b0e4c	-0.18267173
59	0xbe881d4c	-0.26584852
60	0xbe8d6d30	-0.27622366
61	0x3e69c002	0.22827151
62	0xbdf5db11	-0.12004674
63	0xbe38640b	-0.18006913
64	0xbd223823	-0.039604317
65	0xbe34499a	-0.17606202
66	0x3e86716b	0.26258406
67	0xbf1b4c75	-0.6066354
68	0x3ea45749	0.32097843
69	0x3db2a7b3	0.08723392
70	0xbf3fb36d	-0.74883157
71	0xbee8c81e	-0.45465177
72	0xbf0e6034	-0.55615544
73	0x3d8af40c	0.067848295
74	0xbf2daa29	-0.6783777
75	0x3e54468f	0.20730041
76	0xbf0230e7	-0.5085587
77	0xbf0a714d	-0.54079133
78	0xbcae329f	-0.021264372
79	0x3f2d63ed	0.677306
80	0x3e87eabe	0.26546282
81	0xbbae6655	-0.0053222575
82	0x3d8f5b90	0.06999886
83	0xbdae6c8c	-0.085167974
84	0xbe7dd2d1	-0.24787451
85	0xbe7e2f5f	-0.24822758
86	0x398c7d31	0.00026796156
87	0xbf86bbe4	-1.052609
88	0xbec74065	-0.38916317
89	0xbef739ab	-0.48286185
90	0xbf3d7476	-0.7400583
91	0xbf0e7258	-0.55643225
92	0x3ecf55ca	0.4049514
93	0xbf62e30f	-0.88627714
94	0x3d581783	0.052756798
95	0xbe8b56d7	-0.2721469
96	0x3eacd0fd	0.33753195
97	0xbea9acc9	-0.33139637
98	0xbf2a8afd	-0.6661833
99	0xbe83e243	-0.25758561
100	0xbed05c06	-0.40695208
101	0xbe612016	-0.21984896
102	0xbe0c8c14	-0.1372531
103	0xbe1c1d5d	-0.15245576
104	0x3e880ac0	0.26570702
105	0x3da9f9c4	0.08299592
106	0xbe5cefcb	-0.21575849
107	0xbeb0f7ec	-0.3456415
108	0xbef3126d	-0.47474995
109	0xbf517ac4	-0.8182795
110	0xbf01d680	-0.50717926
111	0xbe8aa3a3	-0.2707797
112	0x3e25de19	0.16198005
113	0xbeb33c61	-0.35007003
114	0x3f16d1e5	0.58914024
115	0x3eeb847b	0.45999512
116	0xbf2cc36a	-0.6748568
117	0xbec140d4	-0.37744772
118	0xbf0c3c1e	-0.5477923
119	0xbd1f40e2	-0.038880236
120	0xbf3297b4	-0.6976273
121	0x3d8dbd28	0.06920844
122	0xbe92042b	-0.28518805
123	0xbe9cba45	-0.30610862
124	0x3da69fd5	0.08135954
125	0x3e595edf	0.21227597
126	0x3ed8bd92	0.4233213
127	0xbecab508	-0.3959124
128	0x3d892a2b	0.06697496
129	0x3d816abb	0.06319185
130	0xbdc6bad5	-0.09703604
131	0xbe16cfaf	-0.14727663
132	0xbc7fb6e7	-0.015607572
133	0x3ea31e13	0.31858882
134	0xbd2ddb54	-0.042445496
135	0xbea264fc	-0.3171767
136	0xbd95de8a	-0.073178366
137	0xbc9c5a3f	-0.019086001
138	0xbd218197	-0.039430227
139	0x3e409313	0.18806104
140	0xbd0d71ee	-0.03453248
141	0xbe38e191	-0.18054797
142	0x3de7116a	0.11282618
143	0x3d4cbc0b	0.04998402
144	0xbd02a8f0	-0.031899393
145	0x3d8f9947	0.07011657
146	0xbcfad54a	-0.030619282
147	0xbe1a1f2f	-0.15050958
148	0xbe1c3278	-0.15253627
149	0x3cba774e	0.022761967
150	0xbecfad69	-0.4056199
151	0x3d404560	0.04694116
152	0x3d867b79	0.06566519
153	0xbc62e87d	-0.013849375
154	0xbc34bbec	-0.011031132
155	0xbe747a41	-0.23874761
156	0x3e5a8025	0.21337946
157	0xbdae75fe	-0.08518599
158	0xbb2c76b1	-0.0026315863
159	0xbe8d1970	-0.2755847
160	0x3e6fe884	0.23428541
161	0x3d32a335	0.043612678
162	0x3ec09c1b	0.376191
163	0x3eef1a56	0.4669978
164	0x3d4a1441	0.049335722
165	0x3f0703b3	0.5274002
166	0xbe65ade1	-0.22429611
167	0xbe03963b	-0.12850277
168	0xbe208559	-0.15675868
169	0xbe0dc1e8	-0.138435
170	0x3e0f1840	0.13974094
171	0x3cd647b5	0.02615724
172	0x3d594ed3	0.05305369
173	0x3e39a55f	0.1812949
174	0xbd5b4565	-0.053532977
175	0x3e047e10	0.12938714
176	0xbe3f1819	-0.18661536
177	0x3cba264b	0.022723338
178	0x3d1c8435	0.03821202
179	0x3d90dc82	0.070733085
180	0xbe30bb3a	-0.17258921
181	0x3e79cd66	0.2439476
182	0x3b16b80e	0.0022997889
183	0xbde8d7ee	-0.1136931
184	0xbe8ddd10	-0.2770772
185	0xbdfa7bff	-0.12230682
186	0x3e1ca118	0.15295827
187	0xbd6bc660	-0.057562232
188	0x3c15cc17	0.009142897
189	0xbf688671	-0.9083014
190	0x3ecc207f	0.39868543
191	0xba964726	-0.0011465296
192	0xbe839b98	-0.25704646
193	0xbeb850dd	-0.35999194
194	0x3f4774da	0.77912676
195	0xbe79028d	-0.2431738
196	0x3f8b2b0b	1.0872511
197	0xbe8b006b	-0.27148756
198	0x3f7f7bb9	0.9979816
199	0xbf0897d0	-0.5335665
200	0xbde6ba5b	-0.11266013
201	0x3ecd4ee0	0.4009924
202	0xbda7610e	-0.081728086
203	0x3cbe2d53	0.023214972
204	0xbe963e8a	-0.2934459
205	0xbe2b5029	-0.16729797
206	0xbea46997	-0.3211181
207	0x3baa8986	0.0052043824
208	0xbe848c3e	-0.25888246
209	0x3d0d285a	0.03446231
210	0xbcd7c992	-0.026341233
211	0xbf009558	-0.5022788
212	0xbea232dd	-0.3167943
213	0x3e70eff2	0.23529032
214	0xbdc27d86	-0.09496598
215	0x3d7f4fe5	0.062332053
216	0xbe56a5d3	-0.20961694
217	0xbd9dea6c	-0.07710728
218	0xbecc4125	-0.3989345
219	0x3da9dda8	0.08294231
220	0xbca1862a	-0.019717295
221	0x3e0bef28	0.1366545
222	0x3eaa7862	0.3329497
223	0xbe3eea90	-0.18644166
224	0xbd298084	-0.041382328
225	0xbe2f6930	-0.1712997
226	0xbdb11850	-0.08647215
227	0xbe80ce23	-0.2515727
228	0x3da50b70	0.08058822
229	0xbd2df869	-0.04247323
230	0xbe2018d2	-0.15634468
231	0x3ecd4386	0.4009058
232	0x3d852c11	0.065025456
233	0xbe9f2a10	-0.3108678
234	0xbdf572af	-0.11984765
235	0xbe882237	-0.26588604
236	0x3e65cfee	0.224426
237	0xbe2998be	-0.16562173
238	0xbe425f01	-0.18981554
239	0xbd2fd243	-0.04292513
240	0xbe8f3306	-0.27968615
241	0xbe953f4f	-0.29149863
242	0xbe49d0b6	-0.19708523
243	0xbcbf23e2	-0.02333254
244	0x3e20fccf	0.15721439
245	0xbeb5e721	-0.355279
246	0xbebcbebd	-0.36864272
247	0xbd68d8dd	-0.056847442
248	0xbed2cd02	-0.41172034
249	0x3d94021d	0.072269656
250	0xbe9be10f	-0.30445144
251	0xbe5e189f	-0.2168908
252	0xbd8cad56	-0.06868999
253	0xbe41c32d	-0.1892211
254	0xbe1a0830	-0.15042186
255	0xbf202698	-0.6255889

bias_hh_l0 f4 [256]
0	0xbeeaa083	-0.45825586
1	0xbeb9dc48	-0.36300874
2	0xbecb5d36	-0.39719552
3	0xbcdb1c76	-0.02674697
4	0xbf0ea3a5	-0.5571845
5	0xbe850cab	-0.25986227
6	0x3e09f445	0.13472088
7	0xbe2cd1d7	-0.16876923
8	0x3e1f812d	0.1557662
9	0xbded0cf9	-0.1157474
10	0xbf27f449	-0.65607125
11	0xbf058c21	-0.52166945
12	0xbe408360	-0.18800116
13	0xbedac334	-0.42727053
14	0xba6f25ec	-0.0009122777
15	0xbc8498cf	-0.016186146
16	0xbec3f4db	-0.38272747
17	0xbe9bc904	-0.304268
18	0xbee69d4d	-0.45041886
19	0x3e5522c4	0.20814043
20	0x3d810662	0.063000455
21	0xbf4718ae	-0.77772033
22	0x3e425a90	0.1897986
23	0xbec8bb6a	-0.39205486
24	0xbf16d182	-0.58913434
25	0xbf0b8b12	-0.5450908
26	0xbf018e2e	-0.50607574
27	0xbd99dc36	-0.07512705
28	0xbec65fb5	-0.38744894
29	0xbead2b6c	-0.3382219
30	0xbec09777	-0.37615559
31	0xbe98cc8c	-0.29843557
32	0xbe23f10e	-0.16009924
33	0xbf0ce9dc	-0.5504434
34	0xbda65cc3	-0.08123162
35	0xbe2c3e25	-0.16820581
36	0xbe5ddf6f	-0.21667264
37	0x3ece8cbb	0.40341744
38	0xbdef4656	-0.116833374
39	0xbdd4faba	-0.10399385
40	0xbe86c7a4	-0.2632419
41	0xbf17e5e8	-0.59335184
42	0xbe496959	-0.19669093
43	0xbe555b28	-0.20835555
44	0xbf1601e1	-0.58596617
45	0xbdbe28f8	-0.09285158
46	0xbe5dd46d	-0.21663065
47	0xbeadb5d1	-0.33927777
48	0xbf0e8f2e	-0.55687225
49	0xbdb43088	-0.08798319
50	0xbf0a2f00	-0.53977966
51	0xbebcf451	-0.3690515
52	0xbdcdefa5	-0.10055474
53	0xbd94f977	-0.07274144
54	0xbda5abbf	-0.080893986
55	0xbec8add3	-0.39195117
56	0x3dd1c892	0.10243334
57	0xbee23de0	-0.44187832
58	0xbe8b0617	-0.27153084
59	0xbea7ffb8	-0.32812285
60	0xbe7a3fce	-0.24438402
61	0x3e01d704	0.12679678
62	0x3cbf42b0	0.023347229
63	0xbe62ad53	-0.2213643
64	0x3d129e66	0.03579559
65	0xbd1ca6fe	-0.038245194
66	0x3e16f4f0	0.14741874
67	0xbf378733	-0.7169067
68	0x3ebc70c3	0.3680478
69	0x3dad3739	0.084577985
70	0xbf39af55	-0.7253316
71	0xbed97a99	-0.42476347
72	0xbec4b444	-0.38418782
73	0xbce95fda	-0.028488088
74	0xbf2df929	-0.67958313
75	0x3e2e230f	0.17005561
76	0xbf243ecb	-0.64158314
77	0xbeb633ff	-0.35586545
78	0xbd5084e0	-0.05090797
79	0x3f0b24b8	0.54352903
80	0x3e236982	0.15958217
81	0xbd4fda93	-0.050745558
82	0x3cf0a1eb	0.029374084
83	0xbe32c135	-0.17456515
84	0xbe186a17	-0.1488422
85	0xbe1a5d44	-0.1507464
86	0xbdb35eb0	-0.087582946
87	0xbf87ed6a	-1.0619328
88	0xbf05b37f	-0.52227014
89	0xbf2e013d	-0.6797064
90	0xbf3163f7	-0.6929316
91	0xbf155ab3	-0.5834152
92	0x3ebb77f9	0.3661497
93	0xbf532e53	-0.8249256
94	0x3d6dba65	0.058039088
95	0xbe85aae8	-0.26106954
96	0x3e5fcbf3	0.21855144
97	0xbeaacab8	-0.33357787
98	0xbefa7406	-0.48916644
99	0xbe567545	-0.20943172
100	0xbec81a2a	-0.39082462
101	0xbd956af7	-0.072957925
102	0xbe7e5c3e	-0.24839875
103	0xbdce5ea7	-0.10076647
104	0x3ee62e47	0.44957182
105	0x3db2377e	0.087019905
106	0xbd8b47ff	-0.068008415
107	0xbeaadad9	-0.33370093
108	0xbed0de56	-0.4079463
109	0xbf3b6ddc	-0.7321451
110	0xbf18d5fb	-0.5970151
111	0xbe94f27a	-0.29091245
112	0x3e97a3ec	0.2961725
113	0xbeff1cc2	-0.49826628
114	0x3f0bc93d	0.5460394
115	0x3e99f314	0.30068266
116	0xbf4fe975	-0.812156
117	0xbeb7f543	-0.35929307
118	0xbf0f377b	-0.5594403
119	0xbd1cc721	-0.03827584
120	0xbf1b92ba	-0.6077076
121	0xbdfb8bc5	-0.12282518
122	0xbea41a2c	-0.32051218
123	0xbe060b3e	-0.13090226
124	0x3deee21b	0.1166422
125	0x3d90c343	0.07068493
126	0x3eeb9937	0.4601533
127	0xbedf0b1c	-0.43563163
128	0x3de65be3	0.11247995
129	0x3e03ae25	0.128594
130	0xbde41bf8	-0.11138147
131	0xbe20f45e	-0.15718219
132	0xbd8a8b03	-0.06764796
133	0x3e6f2bb1	0.2335651
134	0xbd5606ad	-0.05225246
135	0xbed6ffd8	-0.41992068
136	0xbdbb54f5	-0.09147064
137	0x3be39be7	0.0069460752
138	0x3d228e2c	0.039686367
139	0x3e0f4274	0.13990194
140	0x3d99a0aa	0.07501347
141	0xbda5635b	-0.08075591
142	0x3eae9f85	0.3410608
143	0x3dc74463	0.097298406
144	0x3d2ee8a6	0.04270234
145	0x3dc5a8a1	0.09651304
146	0x3d0e15d0	0.03468877
147	0xbd1057f3	-0.035240125
148	0xbe906bdc	-0.2820729
149	0x3e61e407	0.22059642
150	0xbed5e30c	-0.41774786
151	0x3dd881ce	0.10571633
152	0xbddfc211	-0.10925687
153	0xbd62ff59	-0.0554193
154	0xbc990fe9	-0.018684344
155	0xbd921e8f	-0.07134735
156	0x3e3ee0dc	0.18640465
157	0x3d86caac	0.06581625
158	0x3c266fec	0.01015852
159	0xbe5047ab	-0.20339839
160	0x3e3a57f4	0.18197614
161	0x3e53bcf1	0.20677544
162	0x3e46cece	0.19414827
163	0x3ed18788	0.40923715
164	0xbd29de78	-0.04147193
165	0x3efffd32	0.4999786
166	0xbe9971c1	-0.299696
167	0xbe6cb15e	-0.23114535
168	0x3ca1936c	0.019723617
169	0xbdadf78b	-0.08494481
170	0x3daa7266	0.08322601
171	0x3d6be1f9	0.05758855
172	0xbbeabbfe	-0.0071635237
173	0x3e82afcd	0.2552475
174	0xbd1e3bc4	-0.038631216
175	0xbd0d342b	-0.03447358
176	0xbe0ae5af	-0.1356418
177	0xbd4d15eb	-0.05006973
178	0x3d65ff32	0.056151576
179	0xbd9c2a51	-0.07625259
180	0x3d14f180	0.036363125
181	0x3d570cc5	0.052502412
182	0x3be66644	0.007031234
183	0x3c833393	0.016015803
184	0xbec90cba	-0.39267522
185	0xbdb9dac5	-0.0907493
186	0x3e1fe6b7	0.15615354
187	0xbceca200	-0.028885841
188	0x3b8acf4e	0.0042361384
189	0xbf85283b	-1.0402902
190	0x3ee592a6	0.44838446
191	0x3d374850	0.044746697
192	0xbe891747	-0.26775572
193	0xbe83af0f	-0.25719497
194	0x3f33a3e8	0.70171976
195	0xbe5a674f	-0.21328472
196	0x3f96df21	1.1786844
197	0xbe86411d	-0.26221552
198	0x3f97d7b1	1.1862699
199	0xbedd1140	-0.43177223
200	0xbe807b8b	-0.25094256
201	0x3e8ff1a9	0.2811406
202	0xbda9ff2d	-0.08300624
203	0xbcbaad34	-0.022787668
204	0xbe9d1c2b	-0.30685553
205	0xbeaf6ede	-0.34264272
206	0xbea04085	-0.31299224
207	0xbb59b1c5	-0.003321753
208	0xbe91a4f6	-0.28446168
209	0x3e3d8656	0.18508276
210	0x3d229a12	0.039697714
211	0xbf04d942	-0.5189401
212	0xbed688b9	-0.41901186
213	0x3e87c350	0.265162
214	0xbe50661e	-0.20351455
215	0x3c82f398	0.015985295
216	0xbe754445	-0.23951824
217	0x3d8930d9	0.0669877
218	0xbe71953c	-0.23592085
219	0x3dd1f1e8	0.10251218
220	0xbe13e627	-0.14443265
221	0xbd394774	-0.04523416
222	0x3e8d5526	0.27604026
223	0xbea3bc88	-0.31979775
224	0x3c458147	0.012054748
225	0xbe122279	-0.14270963
226	0xbc68b8d4	-0.014204223
227	0xbe251aa1	-0.1612344
228	0x3d137a62	0.036005385
229	0xbdd7d730	-0.10539091
230	0xbe61bc62	-0.22044519
231	0x3f0a9d90	0.5414667
232	0xbcc6cc5d	-0.02426737
233	0xbea94406	-0.3305971
234	0x3da27698	0.07932776
235	0xbe9bb26a	-0.30409557
236	0x3dfbe6ce	0.12299882
237	0xbe685092	-0.22686985
238	0xbeccb6b6	-0.39983147
239	0xbdc4d38e	-0.09610663
240	0xbe200386	-0.15626344
241	0xbed3366e	-0.41252464
242	0xbe8f9cd4	-0.28049338
243	0xbdb9220d	-0.09039698
244	0x3db6043c	0.088875264
245	0xbdef9387	-0.116980605
246	0xbf083109	-0.5319982
247	0xbe1929a8	-0.14957297
248	0xbf04bf83	-0.51854724
249	0x3df4f609	0.1196099
250	0xbe622ca1	-0.22087337
251	0xbe1fcb7c	-0.15604967
252	0x3d97ffd7	0.074218445
253	0xbe2c14b6	-0.16804776
254	0xbdc70e5c	-0.09719536
255	0xbed2170f	-0.41033217
